tested_policies/go2/go2_small/exported/policy.onnx (onnx, 104462 bytes, 8 tensors)

actor.0.weight f4 [64, 260]
000000 7e 14 82 3d 45 86 bb 3e 97 7b f7 bb 00 74 84 3d
       0.06351565 0.36625877 -0.007552575 0.06467438
000010 c1 86 19 3d 48 af 8e 3c d6 53 54 be f2 ac b2 3f
       0.037482027 0.017417565 -0.20735106 1.3959029
000020 c5 da 88 3d 43 eb ad 3e da df ea 3e 2a 4f 07 3e
       0.06682352 0.33968553 0.4587391 0.13213792
000030 42 e1 1d bf ca 39 2f bf 29 48 d3 3e b3 55 c3 3e
       -0.6167184 -0.68447554 0.4126599 0.3815132
000040 dd a7 64 3e 86 cc a6 be 79 cf 46 3d 65 41 df be
       0.2232966 -0.32577914 0.048537705 -0.4360458
000050 c4 c4 bc be d5 b4 0d 3e eb 36 2d be db ff 7e 3e
       -0.3686887 0.13838513 -0.16915481 0.24902289
000060 fd 12 fe bc d5 46 40 3d 5a 0a b5 3c 2b 35 87 bd
       -0.031014914 0.04694255 0.022099663 -0.06601938
000070 02 4f 06 bc 77 a9 87 bd 16 53 51 3b 57 b8 04 3d
       -0.008197548 -0.0662412 0.0031940392 0.032402363
000080 24 07 3f 3c 37 f8 78 bc d3 73 e2 3c 38 e8 2b bd
       0.011659417 -0.015195898 0.02764312 -0.041969508
000090 cd 0b fa bd 65 94 dd bd 2c 74 17 bd a3 06 1e 3c
       -0.12209282 -0.1081932 -0.036976025 0.009645137
0000a0 fa 6a 39 bd 19 c2 9a 3d 3b 9b c2 bb 58 e7 18 3e
       -0.045268036 0.075565524 -0.005938915 0.14932
0000b0 19 21 5f 3d 6f bd 3a 3e ca 3e 0c 3d 49 c4 8b bc
       0.054474924 0.18236326 0.034239568 -0.01706137
0000c0 51 c3 54 bc d0 ab 94 bd f8 4d 26 be a8 37 ae bc
       -0.01298602 -0.07259333 -0.1624068 -0.021266773
0000d0 c5 a1 82 3c a3 37 f7 3d be 8f 29 be 1e d8 1d be
       0.015946278 0.12071159 -0.1655874 -0.15414473
0000e0 2b f0 d5 3d 32 b8 d9 3d a7 d9 27 be e3 76 b5 3f
       0.10446199 0.106308356 -0.16391622 1.4176906
0000f0 8f 41 4b 3d 6c 13 51 3e 98 25 fa 3e 0a de 7a 3e
       0.04962307 0.20417565 0.48856807 0.24498764
000100 0a c7 d7 be d6 aa 23 bf 93 03 e3 3e dc 81 97 3e
       -0.42144042 -0.6393255 0.44338664 0.29591262
000110 a2 54 af 3e 67 d4 86 be b2 45 02 3e 8c 20 c3 be
       0.34244257 -0.26333925 0.12721899 -0.3811077
000120 d7 cd 06 bf af 72 99 3d b1 17 1f be ed 60 59 3e
       -0.52657837 0.07492577 -0.15536381 0.2122838
000130 1d bf 31 bd 6f 30 47 3d 58 62 62 3d 93 92 fb 3d
       -0.04339515 0.048630174 0.05526957 0.12283816
000140 a5 22 38 3d a3 47 20 bc 80 fc 8c 3c 11 38 54 bd
       0.044954915 -0.0097827045 0.017210245 -0.05181128
000150 63 3a 24 3d fb ed 0b bc fd fa 80 bd a4 45 3c 3d
       0.040094744 -0.008540626 -0.06297872 0.045964852
000160 c6 be d8 bd f9 ac 23 be cb 03 8d 3c de 59 8c be
       -0.10583262 -0.15983953 0.017213723 -0.27412313
000170 bf e6 3d 3d 70 7d fa 3c 8f fd 22 be 5d 8d 40 3d
       0.046362635 0.030577391 -0.15917037 0.047009815
000180 ab 50 e1 3d 0b 99 80 3e 66 c2 1a 3d eb 0b 5d bd
       0.11001714 0.25116763 0.03778305 -0.053966444
000190 93 90 ac bd a9 83 5a be 15 f8 75 be 75 d0 24 be
       -0.08426013 -0.21339287 -0.24020417 -0.16095145
0001a0 33 f5 ac bd 2b 7d 17 be c5 93 14 3e 69 ac 37 bb
       -0.084452055 -0.14793842 0.14509495 -0.0028026348
0001b0 56 dd 72 3e 7b 99 18 3e 21 59 da bd 6a c0 ad 3f
       0.23717245 0.14902298 -0.10661531 1.3574345
0001c0 92 4a 83 3c 95 19 95 3e a7 ca 2e 3f b3 8d a0 3e
       0.016026769 0.2912108 0.6827797 0.31358108
0001d0 a7 5c 78 be 75 b7 0d bf f0 b5 e4 3e 62 7a 86 3e
       -0.24254094 -0.5535806 0.44670057 0.26265246
0001e0 68 de b7 3e fe f0 05 be 15 bb dd 3d 67 21 89 be
       0.3591187 -0.13080212 0.10826699 -0.26783296
0001f0 51 86 25 bf ec b3 ba 3b 75 94 7a bd 7d 26 28 3d
       -0.64658076 0.005697718 -0.061176736 0.04105233
000200 5f ce e4 3b 1e e7 04 3d e9 75 cc 3c 17 5d a8 bb
       0.006982609 0.032446973 0.024958568 -0.0051380503
000210 fe d5 63 bb 22 a1 45 bd 0f f3 09 3d 27 1d 9c bd
       -0.0034765 -0.04824937 0.033679064 -0.07622748
000220 ee f2 11 3b 96 ce 15 bc 63 32 01 3c 57 fb 92 3c
       0.0022270042 -0.009143492 0.007885548 0.017942114
000230 db 09 f5 bc 83 c6 38 bc ab 7b 97 3d 88 1d 83 be
       -0.029911926 -0.011277798 0.07396635 -0.25608468
000240 e1 7f 17 3c 5c 8b 2e 3d 0c 41 59 bd 67 66 51 3e
       0.009246797 0.042613372 -0.05304055 0.2044922
000250 ec ad cf 3d 9a 07 96 3e 54 4c 16 3e 6d 89 24 bd
       0.10140595 0.29302675 0.14677554 -0.040170122
000260 b8 85 d9 bd bc b4 46 3d 5f e2 da 3c fc e4 a8 bd
       -0.10621208 0.048512205 0.02671927 -0.082468
000270 9c ad 88 be 40 25 cf be ed 27 5b 3f b2 93 c5 be
       -0.26694953 -0.40458107 0.85607797 -0.38589245
000280 4f 7e 4f 3d 28 f5 0c be 3f 3c 55 bd 54 53 c6 3f
       0.050657567 -0.13765395 -0.05205941 1.549418
000290 12 70 18 bd 03 be c8 3e e1 fd 48 3f 74 c6 02 3f
       -0.037216254 0.39207467 0.7851239 0.51084065
0002a0 9d 38 4b be 86 8d 0d bf 14 62 07 3f 01 85 26 3e
       -0.19845815 -0.5529407 0.5288403 0.16261674
0002b0 4f 92 d3 3e f3 95 6e 3d c7 39 7e 3e b6 70 24 be
       0.41322562 0.05824847 0.24826728 -0.16058621
0002c0 1c 53 46 bf e9 30 78 bd f0 0d 84 bc 2e bc 4c bd
       -0.77470565 -0.06059352 -0.016119927 -0.04998415
0002d0 97 5b 28 bd f4 40 0a be 2b f9 88 3d 88 62 e5 3d
       -0.041102972 -0.1350134 0.0668815 0.11200434
0002e0 7a 31 42 39 2c a0 84 3a 3b a6 17 bd f4 7c 65 bd
       0.00018519713 0.0010118536 -0.037023764 -0.056027368
0002f0 d2 62 ec bc 7d 36 ac bd 00 75 f2 bb 33 38 06 3d
       -0.028855715 -0.0840883 -0.0073992014 0.03276844
000300 5e 73 67 3b 86 ac 67 bd 5d 03 54 3d 4a 40 a2 be
       0.0035316567 -0.056561016 0.05176102 -0.31689674
000310 e2 e9 9f bd 36 39 91 3b 1f e4 26 3d da 93 13 3e
       -0.078082815 0.004431869 0.040744897 0.1441187
000320 28 87 7b 3e a8 42 a0 3e c6 49 94 3d 67 70 b8 3b
       0.24563277 0.31300855 0.07240634 0.005628634
000330 51 b5 42 bd 72 19 a4 3c 21 b6 e2 b9 71 00 7f bc
       -0.047536198 0.020031665 -0.00043241776 -0.01556407
000340 6f 45 c8 be 56 fb 2a bf 61 d0 58 c0 b1 32 8f be
       -0.39115474 -0.6678976 -3.3877184 -0.27968362
000350 a6 94 70 3f 23 48 91 bd 95 f4 fb 3c ec 9b cd 3f
       0.9397682 -0.07093837 0.030756274 1.6063209
000360 d1 3a 8a bc 87 99 e8 3e f6 46 98 3f 35 48 46 3f
       -0.016873749 0.45429632 1.1896656 0.7745393
000370 01 9f b0 bd 28 d2 36 bf f2 bc 09 3f 31 fa 13 3e
       -0.086240776 -0.71414423 0.5380393 0.14450909
000380 de 9a 04 3f 2f 68 36 3e 15 db bb 3e b6 99 a0 bd
       0.5179881 0.1781318 0.36690584 -0.07841818
000390 94 87 60 bf 67 f1 68 be 96 87 3d 3d fb 1a 96 3e
       -0.87706876 -0.22748338 0.046271883 0.2931746
0003a0 78 2a 18 be 64 68 ed bd 29 1e fd bc ff 78 bf 3d
       -0.1485995 -0.115921766 -0.03089817 0.0934925
0003b0 31 80 06 3e e8 b0 d0 bc 4a 90 d5 3d 29 15 ad 3c
       0.13134839 -0.02547498 0.104279116 0.021128254
0003c0 2a a7 14 bd 3e 79 ba 3d 3d b1 06 3d e4 1d 9c 3c
       -0.036292233 0.09105156 0.03288387 0.019057222
0003d0 e2 0b 2a 3d e4 47 41 be 9d 9c 6b bd 2b 42 30 be
       0.04151524 -0.1887508 -0.057522405 -0.17212741
0003e0 82 d7 d5 3c 7d 90 b8 bd af f7 39 bd 04 98 75 3d
       0.026103739 -0.09011934 -0.045402225 0.059959427
0003f0 16 50 42 3e e8 da 7a 3c a1 5e 23 be 4b b5 cf bd
       0.18975863 0.01531098 -0.15954067 -0.10142001

actor.0.bias f4 [64]
000000 66 f3 f3 bc ae 50 6c bd 31 a2 4c be 6f 7c 21 be
       -0.029779147 -0.05769413 -0.19983746 -0.15770124
000010 58 af 54 3e a7 6f 51 be 0d 65 ba bd d0 a9 67 3d
       0.20770013 -0.20452748 -0.09101305 0.05655843
000020 ec c6 37 bc c4 78 be bd bf 7a 56 3a 96 85 f2 bc
       -0.01121686 -0.09300378 0.0008181743 -0.029604714
000030 d0 a9 05 be b0 8a 8e be c4 3d 87 ba 52 69 53 3e
       -0.1305306 -0.27840185 -0.001031809 0.20645645
000040 c1 70 40 bd 0e b2 30 be 58 c4 31 3d 21 16 8d 3d
       -0.04698253 -0.17255422 0.04340014 0.068889864
000050 df 9a d2 3c 36 b9 b7 bd 50 0e 40 3e 99 8c 27 be
       0.025708614 -0.08970873 0.1875546 -0.16362227
000060 96 df 30 3d 31 91 ba bd f7 86 5e be 6f a4 85 be
       0.04318198 -0.09109724 -0.21731173 -0.26102015
000070 6b b1 55 3e f2 d0 a6 bd 0f b9 2b 3e 4b 55 9e bd
       0.20868461 -0.08145322 0.16769813 -0.07731112
000080 1b 11 22 bd f5 7f e7 bd b1 6a f8 bb 85 f4 81 be
       -0.039567094 -0.11303703 -0.007581078 -0.25381866
000090 4b dd d5 bd 79 f7 26 3e e8 06 84 3d 4a 21 bd 3d
       -0.10442599 0.16305341 0.0644663 0.09234865
0000a0 19 36 8b 3d f4 bd 8f 3d b3 08 96 bc 13 fb 82 bc
       0.06797428 0.070186526 -0.018314695 -0.015988862
0000b0 27 c3 22 3d 8b ac 09 bd 9c c2 85 be 21 a7 7c bd
       0.039736893 -0.033611815 -0.26125038 -0.061682824
0000c0 a4 ba fb bd 6f 48 e0 3d 5c d0 54 3c 9f e2 80 3c
       -0.12291458 0.109513156 0.01298913 0.015733061
0000d0 bb 7b cd bb 6f b5 48 bd e1 3f 99 bd b0 fa 9f 3c
       -0.0062708533 -0.049001154 -0.07482887 0.019528717
0000e0 42 25 11 bc d4 01 be be 50 f0 cf 3d fd 1d 19 bc
       -0.008858981 -0.3711077 0.10153258 -0.009345529
0000f0 e4 ab 29 be 68 fc c7 3c c1 db 0b bd 10 71 02 3d
       -0.16569477 0.024412349 -0.03414512 0.031846106

actor.2.weight f4 [64, 64]
000000 f6 d2 0c 3e ac 78 ff 3d ac 1c 43 3e d1 d0 8e 3d
       0.1375235 0.12474188 0.19053906 0.06973422
000010 9c b1 bf 3d 27 7e ab bc 68 84 9d 3e 93 cb a0 bd
       0.09360048 -0.020934178 0.3076508 -0.07851329
000020 b7 39 7e be e3 4d 4f be 53 de 2c 3e da 62 b1 bd
       -0.24826704 -0.20244555 0.16881685 -0.086614326
000030 64 7c 08 3d 35 ff d3 bd 8d 96 5c be 5b 35 04 bc
       0.033321753 -0.10351411 -0.21541806 -0.008069362
000040 69 74 8a be f6 85 d3 3c 1d 3c d2 be 93 d0 41 bd
       -0.2704194 0.025820713 -0.41061488 -0.047318053
000050 51 66 84 bd af e3 ff bc 64 41 7d 3d 21 ad df 3d
       -0.06464828 -0.031236498 0.06182994 0.109216936
000060 11 4b 15 bb 50 0d c1 bd 7a 52 4b be 2c a0 67 bd
       -0.0022780339 -0.09426367 -0.19855681 -0.056549236
000070 df 56 23 be 7c fe 9f bc 6a e4 7b 3c 4b 81 8c be
       -0.15951107 -0.019530527 0.015374282 -0.27442393
000080 0f 48 c5 be aa 41 07 3b 16 7a 23 3e a0 f0 e9 3e
       -0.3853154 0.0020638504 0.15964541 0.45691395
000090 c3 2b 23 3d ee e3 35 be 2e 1e 0e 3a 3a b4 6a be
       0.039836656 -0.1776273 0.0005421367 -0.22920313
0000a0 46 31 89 3d 78 da f8 bd 5b a1 37 3e e9 a0 6a 3c
       0.06698851 -0.121510446 0.17932646 0.0143205905
0000b0 dd 90 8c be 31 45 29 be 62 cc 7a be 0d 8b d9 bd
       -0.27454272 -0.165303 -0.24492028 -0.10622225
0000c0 09 59 18 3e 97 92 72 be f3 d9 99 39 be 33 d3 39
       0.14877714 -0.23688732 0.0002934482 0.00040283607
0000d0 7a e2 0e 3e 8d 75 3d ba bf 07 2c 3e 66 db d1 3c
       0.13953581 -0.0007227294 0.1679983 0.025617313
0000e0 d2 b4 d4 be 10 aa 0e be cb 9e 0a 3d e0 8e 15 be
       -0.41544205 -0.13932061 0.033842843 -0.14605284
0000f0 e5 76 9c 3e d4 e4 42 bd c4 ae d6 3c 93 da ab be
       0.3055946 -0.04758151 0.026206382 -0.33565196
000100 2e 06 7e bc c3 92 d4 3c 98 43 9e be 1c 93 1f be
       -0.015504403 0.025948888 -0.30910945 -0.15583462
000110 01 4c 9e be 48 78 c3 3d b9 65 ea 3c be 46 cc 3b
       -0.3091736 0.09544426 0.028612958 0.006234019
000120 11 b1 93 bd 37 f0 2c 3d 05 35 70 3d a5 d5 85 3d
       -0.07211507 0.042221274 0.058644313 0.0653489
000130 39 c0 dc 3d e5 91 1c 3d 3c 60 ad bc 4c 18 ce bd
       0.10778851 0.038225073 -0.021164052 -0.10063228
000140 0f 15 d0 3d e3 0f 5c bd 76 f0 05 3f bd 4d 16 be
       0.101602666 -0.05372609 0.5232004 -0.14678092
000150 53 4d 5c bc ef 4b 41 bd 96 5d 36 3e e1 5d 23 be
       -0.01344617 -0.047191557 0.17809138 -0.1595378
000160 d3 99 99 bb 80 9c ff 3d 07 58 54 3e 33 ea e0 be
       -0.0046875267 0.12481022 0.20736705 -0.4392868
000170 3e 83 82 bd a8 29 06 be 06 41 86 be 31 d6 98 3e
       -0.06372689 -0.13101828 -0.26221484 0.29850915
000180 c8 9c 1c 3e 75 e8 17 be f9 c5 88 3c 00 7f a2 be
       0.15294182 -0.14834769 0.016695963 -0.31737518
000190 14 1a ba bd 30 bd 9d bc f9 a0 ba 3d b9 42 bc 3d
       -0.09087005 -0.01925525 0.09112734 0.09192414
0001a0 e7 5d bf bd 6d 28 28 3e 41 38 10 3e 85 07 04 be
       -0.09344082 0.16421671 0.14083959 -0.12893493
0001b0 fe 23 3d 3e 4a bb 2d 3e cf 38 17 3e 95 cd 7b 3d
       0.18470761 0.16965976 0.14767765 0.061475355
0001c0 e1 04 12 be 7d 36 9c 3d 98 3b 86 bb fb 89 04 be
       -0.14259674 0.0762758 -0.0040964596 -0.1294326
0001d0 36 e1 21 be 7d 90 3c bd e4 66 c3 bd 0a d1 db 3d
       -0.15808567 -0.046036232 -0.09541109 0.107332304
0001e0 5a d6 59 3e 63 6c 3e be bb 09 2a be 66 06 85 3c
       0.21273175 -0.18596034 -0.16605274 0.016238403
0001f0 b7 d2 8f be e5 6d ee bd 6f 17 8c be 17 a3 9e bb
       -0.2809045 -0.116420545 -0.27361628 -0.004841219
000200 95 c1 01 3e 2f 18 a1 bd 5b 73 28 bd 5a 05 31 bd
       0.12671502 -0.07865941 -0.041125637 -0.043217994
000210 93 97 75 be 21 63 44 3e 53 ff 67 3e 57 49 71 3e
       -0.23983602 0.1917844 0.22655992 0.23563133
000220 67 aa a6 bd 13 46 cc 3d 90 23 2f bd b0 25 88 3d
       -0.081379704 0.09974303 -0.042758524 0.06647813
000230 3f 1e 38 3e d8 d1 c3 3d 67 ec c5 bd 0c af 32 be
       0.17980288 0.09561509 -0.09664231 -0.17449588
000240 d4 57 ba 3d 88 6a 54 3d 65 4a 3e 3e 14 c4 8c be
       0.09098783 0.05185941 0.18583067 -0.27493346
000250 e2 23 10 3e de 1a 7e 3a 43 27 b0 bc ad f1 39 3e
       0.14076188 0.00096933346 -0.021503096 0.18158598
000260 05 97 04 3e 1c 33 b9 3d 13 29 45 3e 2d 22 2e 3e
       0.12948234 0.090429515 0.1925395 0.17005225
000270 c1 27 33 be 07 34 88 3d 1a 44 74 be b9 87 dd 3d
       -0.17495634 0.066505484 -0.23854104 0.10816903
000280 83 7d 21 be bc 08 67 3e 17 ad e4 3d 44 52 c4 3d
       -0.15770535 0.22561926 0.11165827 0.095860034
000290 1d bf a8 bd 1f 4a af bc 40 8f 71 3e 68 ce 06 bd
       -0.08239577 -0.021397648 0.23589802 -0.032911688
0002a0 88 c8 5f 3d a6 68 5a be cf 6b 25 bd c6 4b 6e 3d
       0.0546346 -0.21328983 -0.040386017 0.058177732
0002b0 21 c3 38 3d 39 21 c9 3d e1 86 2e 3e f5 02 89 3c
       0.045107964 0.0982079 0.1704364 0.016725043
0002c0 dc 60 db 3d 89 06 73 3d 16 d3 38 bc 27 a6 1b 3d
       0.10711834 0.059332404 -0.011280796 0.038000252
0002d0 b5 9e c6 bd 24 ab 16 3d 20 05 03 3e 6f f0 83 3d
       -0.0969824 0.036784306 0.12794924 0.064423434
0002e0 54 7f 83 bd da 57 b7 be 1b fc 39 3d 2e 31 26 be
       -0.0642077 -0.35809213 0.045406442 -0.16229698
0002f0 46 6a 5c 3d d8 a3 67 ba 80 00 86 bd 87 67 5a be
       0.053812288 -0.00088363653 -0.06543064 -0.21328555
000300 d2 02 40 3d 06 a5 98 bd 52 95 71 3e ec b6 33 be
       0.04687769 -0.07453351 0.23592117 -0.17550248
000310 76 2f cd be da bb 6c 3e 84 16 88 be dd e4 30 3e
       -0.40075272 0.23118535 -0.26579678 0.17274804
000320 01 73 a0 bd 3f 99 7d 3d a1 15 d5 3c 31 22 b5 bd
       -0.07834435 0.061913725 0.02601129 -0.08844412
000330 c1 ee 13 3c a4 02 86 3e a5 29 a3 be 95 e5 08 3d
       0.009029091 0.2617389 -0.3186771 0.03342207
000340 e4 54 8e 3e 03 6e fe 3b f7 77 07 3d b4 f4 2f bb
       0.2779914 0.0077645793 0.03307339 -0.0026848735
000350 6f 64 5d be cf aa 4f 3c 39 dd b3 3b b4 b8 42 3e
       -0.21620344 0.012675001 0.0054890183 0.19015771
000360 d0 4a 3d bd 4f b6 18 be 7c ea 83 be 18 5b bb be
       -0.046213925 -0.14913295 -0.25764835 -0.36592937
000370 a9 82 ed bd 03 04 0b 3e ee ac 83 3d de da 4c be
       -0.11597187 0.13575749 0.06429468 -0.20005366
000380 48 ff 1e be cd dc 00 3d dc ca 18 3e 4d 82 2b be
       -0.1552707 0.031460572 0.14921135 -0.16748925
000390 a6 f3 20 3b 61 db a9 bd 90 7f c8 3d 0b 6c 85 3c
       0.0024559288 -0.08293796 0.097899556 0.01628687
0003a0 18 77 88 3d 23 46 53 bd 80 28 2e bd b2 5d ab 3c
       0.0666334 -0.05158056 -0.042519093 0.0209187
0003b0 f3 cf 00 3d 25 45 1f bb cb ca ba bd 29 d0 79 3d
       0.031448316 -0.0024302688 -0.09120711 0.060989533
0003c0 20 bf 55 3e 88 ee 1d 3c 38 5d 82 3c 56 66 30 3e
       0.2087369 0.00963939 0.01591359 0.17226538
0003d0 9b c4 3f 3d 4f 2a b2 bd e6 d4 f3 bd 27 6a 41 3d
       0.046818357 -0.08699476 -0.119058415 0.047220375
0003e0 4d b0 02 3d ab 63 56 3d 04 a1 f1 be 6d c6 0a bc
       0.031906415 0.052341145 -0.47193158 -0.00847016
0003f0 a8 07 41 be f2 a6 26 3d 60 1c c6 be 4c ac 76 be
       -0.18850577 0.040686555 -0.38693523 -0.24089164

actor.2.bias f4 [64]
000000 b9 10 2d 3d 80 78 85 be c7 da 8c bd 1e 19 05 bb
       0.042252276 -0.26068497 -0.06877666 -0.002030916
000010 17 36 4f be 5d 1d 4f be 19 e9 03 be c4 f6 9b be
       -0.20235477 -0.20226045 -0.12881888 -0.30461705
000020 b9 f4 54 be 8a bf 96 bd fd 67 25 3e 2d 11 ed bc
       -0.2079648 -0.07360752 0.1615295 -0.028938854
000030 0c a7 25 3d 28 55 b4 bd fc 8d e2 bd 05 23 03 3e
       0.04044251 -0.08805305 -0.110622376 0.12806328
000040 03 e3 2b bd 6a 2a 59 be 05 32 c9 bd df 67 c1 bd
       -0.041964542 -0.21207586 -0.098239936 -0.0944364
000050 6d ac 26 be 83 1e 21 bd 89 4c d0 bd 32 ab be bc
       -0.16276713 -0.03933574 -0.10170848 -0.023274992
000060 59 9a ec bd 99 e9 da be 03 ae 59 bd 8a 04 34 bb
       -0.11552877 -0.42756346 -0.053144466 -0.0027468526
000070 3b 29 ea bd 3b 5a 37 bc e5 29 a4 be 7a 32 e4 bc
       -0.11433645 -0.011190946 -0.32063213 -0.0278561
000080 ca 69 52 be 1a ac b1 bc f1 92 64 be 81 0d 19 bc
       -0.20548168 -0.02168851 -0.22321679 -0.0093415985
000090 d4 5c 73 bd 1d 56 74 3e 84 5b 64 be ae b9 01 bc
       -0.0594147 0.23860975 -0.22300535 -0.007917805
0000a0 13 1c 1a be 6f 35 c8 bd f8 b4 aa bd 0d 34 12 be
       -0.15049772 -0.09775817 -0.08335298 -0.14277668
0000b0 9c 59 ca be 83 7b 09 bd 1f 9a 41 be 49 b5 dd bd
       -0.39521492 -0.033565056 -0.18906449 -0.10825593
0000c0 73 99 b2 3d 3c a7 ca bd ff 12 a4 3a 08 51 35 bd
       0.08720674 -0.09895179 0.0012517868 -0.04426673
0000d0 ca f2 e0 bd 8e 41 8c bc b8 16 fc bc fa ae de bd
       -0.10983808 -0.017121103 -0.030772552 -0.10873218
0000e0 fe 9e f0 bd 9f c9 a5 3d 69 58 18 3e 13 9d 04 be
       -0.11749075 0.08095097 0.14877476 -0.12950544
0000f0 6a a5 bd bd 0b 1a f0 bd 16 ea cf 3d 3f 89 f3 bd
       -0.09260066 -0.11723717 0.1015207 -0.11891412

actor.4.weight f4 [64, 64]
000000 56 45 30 3e 98 d7 68 3e 5c 28 ff 3b bf 52 3b bd
       0.1721395 0.22738492 0.0077867936 -0.04573321
000010 4c 8a 39 3d c3 8f 2f 3e 84 e3 34 bc 5e 53 07 bf
       0.045297906 0.17144684 -0.011040572 -0.52861583
000020 4c 6b 08 3b 53 05 c4 3e 89 0d 7c 3d 75 01 cc 3c
       0.0020815907 0.38285312 0.061536346 0.024903039
000030 a9 0f 22 3d f0 3b 9e 3c ed 10 43 bb da b9 c8 bd
       0.039565716 0.01931569 -0.0029764727 -0.09801073
000040 b7 ca 13 3d 22 9b 91 3d 03 89 24 3d 4c f9 84 3e
       0.036081996 0.07109667 0.040169727 0.25971448
000050 c8 72 f7 be 2d 00 4c 3d 74 00 18 3c 11 77 59 be
       -0.4832976 0.049804855 0.009277452 -0.21236826
000060 be d7 6b be 2c 95 6b 3e 41 ff 15 be a2 f6 be bd
       -0.23031518 0.23006123 -0.14648153 -0.09324385
000070 7d 24 2d 3e 72 3e 9e 3c e9 6b be bc 94 c7 e3 3c
       0.1690845 0.019316886 -0.023244815 0.027805127
000080 69 0b 2c 3d 43 64 a5 3c d3 7d 8e bc 14 c1 1b 3e
       0.04200307 0.02018941 -0.017393982 0.15210372
000090 7c 64 9e bc 26 53 21 be 2b de 09 3d ae 85 d4 3c
       -0.019335024 -0.15754375 0.03365914 0.02594265
0000a0 ec 61 11 3c 7b 66 be 3c 5f 96 cb 3c 2b c0 0d be
       0.008873444 0.023242226 0.024851976 -0.13842838
0000b0 1d 4c 81 3e d0 fd 32 3e 39 81 b4 3d 6e 9b 1b bd
       0.25253382 0.17479634 0.0881371 -0.037990026
0000c0 fe bb 9f 3c 50 6e b6 3d 89 2e 18 3e 29 15 00 3e
       0.019498821 0.08907759 0.14861502 0.12508072
0000d0 fa ec 32 bd 62 8c 8a bd 32 0f 29 3d df d6 15 bd
       -0.04368303 -0.06765057 0.041274257 -0.03658187
0000e0 41 b5 01 bd e1 b9 66 3d b5 54 a5 3c 59 1a 5a 3d
       -0.031666998 0.05632961 0.020181993 0.053247783
0000f0 95 d5 34 3e 58 b6 8a be 4d 97 13 bd d4 db a3 be
       0.176596 -0.27092242 -0.036032964 -0.32003653
000100 b3 76 91 3d d6 ba b8 3d 03 4c 1a be 36 b8 06 be
       0.07102718 0.09020011 -0.15068059 -0.13156208
000110 a2 e6 ba bd 44 3d 64 be bc be 63 3e 64 5e f0 bb
       -0.09126021 -0.22288996 0.22240728 -0.007335471
000120 68 90 d6 bb c2 bc 79 3b ed 17 81 bc 22 07 83 3d
       -0.0065479763 0.0038106893 -0.015758479 0.06397845
000130 bd 57 8f 3d 4c 55 1c 3e 99 5d b9 bd 21 12 22 bd
       0.069991566 0.15266913 -0.090510555 -0.03956807
000140 c9 6a 68 be 6d a2 84 be 86 5c bc 3d bd 61 ea 3e
       -0.22696985 -0.2590517 0.09197335 0.45777693
000150 1b 61 a1 bc 1b 3c 2c bb 51 09 ed 3e 6e 12 76 bd
       -0.019699624 -0.0026280943 0.4629617 -0.06007617
000160 fa e2 29 3e e6 b5 05 3f 82 07 8d bb 5c 7b 06 be
       0.16590491 0.5223068 -0.0043038735 -0.13132995
000170 0d 8c b4 3e 51 c8 09 3e 20 9b 00 bc d8 ec 57 3d
       0.352631 0.13455321 -0.007849485 0.052716106
000180 95 5e 84 be 04 87 c6 ba eb 6d b6 3d e0 3a 6b bd
       -0.2585341 -0.0015146439 0.08907684 -0.057429194
000190 b7 e7 68 be c5 13 fb be 5a 46 9b 3c 36 f3 0a 3e
       -0.22744642 -0.4903852 0.018954445 0.1356934
0001a0 a0 56 65 bc aa c7 44 be be 3d d7 3b 8b 74 bd 3d
       -0.013997704 -0.19216791 0.0065686395 0.092507444
0001b0 8b ff 06 3f ee 0e a7 bd e7 4b ba bd 73 7e a5 3d
       0.5273368 -0.081571445 -0.090965085 0.08080759
0001c0 5a 84 41 3a 7a d9 1c 3e 63 19 9c be 47 0f af bd
       0.00073820876 0.15317336 -0.3048812 -0.08547836
0001d0 50 23 40 be 7a eb 9e be 8c 6e 94 bb 1a 4a 0c 3e
       -0.1876347 -0.3103903 -0.00452978 0.13700143
0001e0 e8 70 bd 3d 7d 77 ce 3b 7f b7 27 bd c4 47 2a 3e
       0.09250051 0.006300865 -0.04094648 0.16628939
0001f0 05 e5 54 bb 66 e4 b7 bd c7 51 1b 3b 60 25 66 3e
       -0.003248514 -0.089791104 0.0023699866 0.22475195
000200 d3 6c 5d be bb 20 b8 3c df 77 8c be b2 a8 23 be
       -0.21623544 0.022476545 -0.27435204 -0.15982321
000210 ed 26 2d be ad 9d 1d 3d 2d 3c bb 3b cf 36 12 3c
       -0.1690938 0.03848045 0.0057139606 0.0089242
000220 cc d8 90 3d c0 38 0e 3e af b7 be bd b9 ec 00 bb
       0.07072601 0.13888836 -0.093123786 -0.0019672348
000230 a0 31 20 3e e1 62 6e 3b bf 92 83 3d f5 de da bd
       0.1564393 0.0036374854 0.06424474 -0.10687057
000240 53 e2 08 be 4d 7d a8 bd 00 40 89 bc 59 e7 ff 3c
       -0.13367586 -0.08227024 -0.01675415 0.031238245
000250 df a5 c7 bd 14 a7 c7 3b de 45 8b bc ac 16 55 be
       -0.09748434 0.0060929153 -0.017001089 -0.2080943
000260 25 f3 ce 3b 34 af 82 bd a9 eb c9 3d e8 50 3d be
       0.006315606 -0.063810736 0.09859402 -0.18487895
000270 b6 de 55 bd 8d fc 44 bd 47 77 51 bc 80 9d dc bd
       -0.052214347 -0.048092414 -0.012784786 -0.10772228
000280 75 6d 25 3e 2a 82 28 bd 29 34 c1 be f2 0a 22 3e
       0.16155036 -0.04113976 -0.37735108 0.15824488
000290 b9 7b 88 3d aa 2e 13 bd 29 8b 84 3c cd 7e f8 bd
       0.06664223 -0.035933174 0.016179638 -0.1213356
0002a0 0c e6 29 3d ef ba 21 be b7 5f 6f be 21 7e 61 3e
       0.041479155 -0.15793966 -0.23376356 0.2202077
0002b0 cd 47 57 be 1b 8c aa bd b3 b8 bd 3e 6a b2 bf bc
       -0.21023484 -0.08327504 0.37054977 -0.023400504
0002c0 14 16 3d be 94 12 c6 be 8e a1 e9 bc 4b f1 3c 3e
       -0.18465453 -0.3868605 -0.028519418 0.18451421
0002d0 36 03 44 bd 10 74 4c bd cb b3 82 bb d8 c8 8b 3d
       -0.047854625 -0.049915373 -0.003988718 0.06825417
0002e0 1a d2 04 3e 66 11 a7 3c 55 15 16 3d 0e 61 83 3e
       0.12970772 0.020394038 0.036641438 0.25659984
0002f0 b5 2f b1 be 7c 51 9e bd 1a 83 bd bd dc 7d 95 3e
       -0.3460671 -0.07730386 -0.09253521 0.29197586
000300 68 d5 51 be 6d 3f 02 be f3 84 89 bd cd f2 5a 3e
       -0.20491564 -0.12719508 -0.06714811 0.21381684
000310 99 42 2c bd 8f 16 84 3d 74 b4 88 3c 1a 36 c9 bd
       -0.0420557 0.06449615 0.01668761 -0.09824772
000320 f0 ca b7 bc f9 3b d3 bd ae d4 a1 3c 8a a2 c4 bc
       -0.022435635 -0.10314173 0.019754734 -0.024003286
000330 e6 65 39 be f4 f5 4c be 4f 3f aa 3e 29 e3 b7 bd
       -0.18105277 -0.20015699 0.33251426 -0.08978874
000340 6b 2b 01 be c5 bd 8d bd 8e 47 9b 3b 08 da e5 bc
       -0.12614219 -0.06920961 0.0047387546 -0.028058067
000350 f9 02 74 3c 7d 0d 56 bc ce da b1 3d 57 63 f7 bd
       0.014893287 -0.013064739 0.08684312 -0.120794944
000360 74 6e a0 be cd 84 8b bd 03 83 9f 3c 4b c6 30 3e
       -0.3133427 -0.06812439 0.019471651 0.17263143
000370 b9 48 9f 3d 65 a6 6f be ff 7d de bd 26 00 82 3d
       0.077775426 -0.23403318 -0.108638756 0.063476846
000380 30 44 c2 3d 19 91 b9 3d 6f 16 73 3e bb 66 23 be
       0.09485662 0.09060878 0.23739026 -0.15957157
000390 5c 10 6f 3c d0 ef 35 3d ea e1 84 bc 12 8e 19 bd
       0.014591303 0.044418156 -0.016221005 -0.037489004
0003a0 a6 b3 67 bd b5 9b 02 3e dc 7f b9 3c 13 c0 35 bd
       -0.05656781 0.1275471 0.022643976 -0.04437263
0003b0 a4 04 76 3d ca 7e 05 3e 81 a9 12 be ea 9d 6f be
       0.06006302 0.13036647 -0.14322473 -0.23400083
0003c0 3e ab db bd 63 3d 5f 3e 63 bb 52 3e bd 9a 07 be
       -0.10726021 0.21800761 0.20579295 -0.13242622
0003d0 c0 89 11 bd 62 fc 4c bd f9 59 6a be f1 ea 21 3d
       -0.03553176 -0.05004538 -0.22885884 0.0395307
0003e0 a5 4e bd 3d dd db 00 bd f9 00 63 bd b0 40 d3 bd
       0.09243516 -0.031459678 -0.05542085 -0.103150725
0003f0 b8 db 46 be fe 71 3f 3e 5d a2 80 bd 4d 33 3e 3e
       -0.19419754 0.18695828 -0.06280968 0.18574257

actor.4.bias f4 [64]
000000 4f 8c d7 bd f1 1e dc 3d 55 31 0c be 3e f9 d8 3c
       -0.105248086 0.10748089 -0.13690694 0.026486035
000010 c6 04 85 be ba 4b 8f bd 2e 8e 95 be 59 7e e2 bd
       -0.25980204 -0.069968656 -0.29210037 -0.11059255
000020 44 7b cd bd 17 25 54 bd 32 ba 05 bd 95 37 1b be
       -0.10033277 -0.051793184 -0.032648273 -0.15157922
000030 2e 4d 14 bd f5 c9 94 bd 36 cc 72 be 37 57 02 be
       -0.036206417 -0.07265083 -0.23710713 -0.12728582
000040 6a 94 1b bd 11 71 72 bd 59 40 23 be 2b 6f 81 bd
       -0.037983336 -0.05918986 -0.15942515 -0.06320032
000050 36 23 5c bd 5d 21 cc bc db c7 8e bd a4 7d a3 bd
       -0.053744517 -0.024918253 -0.06971713 -0.079829484
000060 38 83 a3 bd 76 a7 db bd 48 4b cc bd 23 dd 8a bd
       -0.07984012 -0.107253 -0.09975296 -0.0678046
000070 df 6a 27 3d e2 b8 08 be 4f 9a a2 be ec e8 dd 3d
       0.040873405 -0.13351777 -0.31758353 0.10835442
000080 2d 6d b8 bc 57 c8 07 be ef 2d 86 bd 6c 94 11 be
       -0.022512997 -0.13260017 -0.0655173 -0.14216775
000090 c6 f8 62 bd fb b2 e4 bc 64 fd 13 be 89 5c 60 be
       -0.05541303 -0.027917376 -0.1445213 -0.219103
0000a0 87 a1 8c bd ff d2 0d 3d 37 fc 1f be e7 b2 89 bd
       -0.068667464 0.03462505 -0.15623556 -0.06723576
0000b0 6b f7 fb bc 1e 8a 21 bb 87 19 ec 3d c5 e3 6d bd
       -0.030757627 -0.0024648975 0.115283065 -0.058078546
0000c0 3f a5 13 be cc b9 12 be d6 6f 12 bc 37 f8 75 be
       -0.14418505 -0.14328688 -0.008937797 -0.24020468
0000d0 ec f3 09 bd 36 f9 39 be 0b 8e ee bd 52 b1 af be
       -0.033679888 -0.18161473 -0.11648186 -0.34314972
0000e0 62 ce ea bd 90 be e0 bd b4 29 4d bd 66 e5 24 bd
       -0.11465146 -0.10973847 -0.0500886 -0.040257834
0000f0 08 f6 39 be 8a a5 e0 bd ee 9e 1e be c4 5a cd bd
       -0.1816026 -0.10969074 -0.15490314 -0.10027078

actor.6.weight f4 [12, 64]
000000 ec ec d6 bd 7b cd 1c 3b e5 fa 48 3d b6 02 c2 3c
       -0.10494408 0.0023926187 0.049067397 0.023682933
000010 6c 87 8b bd 5b 22 be 3d d5 fc 34 bd 92 a8 32 3d
       -0.06812939 0.092838965 -0.044186432 0.043617792
000020 7d 0d c7 3d ef fb 26 3b cd 79 1b 3c 0d f6 31 3a
       0.097193696 0.0025479754 0.009489489 0.00067886786
000030 85 e1 55 3d ac 78 5f 3b 17 0b c0 3b 63 b1 98 3a
       0.052217025 0.0034099026 0.005860697 0.0011649545
000040 e4 24 cc 3c 77 3c a6 3c 28 f2 0e 3e 97 53 d6 3d
       0.024919935 0.020292504 0.13959563 0.10465162
000050 b0 38 9a 3b f9 9a da 3c b9 7c db bc 90 0b 4d 3d
       0.0047064647 0.026685225 -0.02679287 0.050059855
000060 58 39 d6 3d 94 77 08 bc ce 5a e3 bc ca 0b ae bd
       0.10460156 -0.008329291 -0.02775326 -0.08498342
000070 34 09 f8 3c 02 b1 13 bc 41 56 ce bb ba 05 1b bb
       0.030277826 -0.00901437 -0.0062969034 -0.0023654536
000080 9d 2a 68 3c b2 cd 66 3d 53 b7 4c bd 3b d0 47 bd
       0.014170316 0.05634851 -0.04997952 -0.04878257
000090 c5 9f 79 bd ce ee be 3c a2 0d 23 bd b8 bd 93 bc
       -0.060943384 0.02330723 -0.039807923 -0.0180348
0000a0 de b6 7a bb 07 f4 60 bd da 92 8b bd 31 e5 fe 3b
       -0.003825597 -0.054920223 -0.06815119 0.0077787866
0000b0 1b 4d bc bb ea fd 94 bc ba 94 ed bb 91 39 53 bd
       -0.0057464964 -0.018187482 -0.0072503956 -0.05156857
0000c0 a7 65 6c 3c d7 39 66 bc 50 9d c5 3b 83 53 71 3d
       0.014428533 -0.014051876 0.006030716 0.058917534
0000d0 4c 8d c1 3b 7a 4e 91 bd 34 c3 f4 37 f4 38 61 bd
       0.0059067365 -0.07095046 2.9177965e-05 -0.054985955
0000e0 ab 55 80 3d 97 10 d0 3d af 2a 93 3c 74 7f 42 bd
       0.0626634 0.10159414 0.017964689 -0.04748483
0000f0 8c 4f a7 3d 59 40 88 bb 1b fa 9c 3d ac 55 b7 3d
       0.08169469 -0.0041580615 0.07664891 0.089518875
000100 8a eb 9a 3b aa 8d 1c bb ce a2 8b 3d f1 b5 f5 bc
       0.0047277855 -0.002388815 0.06818162 -0.029993983
000110 d3 e3 c3 3b 1e e4 a8 bc e4 de 61 3d 1b 2d 68 bd
       0.0059780865 -0.020616587 0.055144206 -0.05668364
000120 08 c4 d4 bd 2a 2e 93 bc d6 3b ae 3d ea 19 91 3d
       -0.103889525 -0.017966349 0.085075065 0.07085021
000130 f3 69 d8 3c 62 00 4b 3d 82 30 71 bd 82 31 b8 bd
       0.026417708 0.049560912 -0.05888415 -0.08993818
000140 96 dc 82 3b e2 19 bd bd c1 34 7c bd ad 90 b6 bb
       0.003993581 -0.092334524 -0.061573748 -0.005571446
000150 0f fc d9 ba 70 d8 56 3d 29 50 53 bd 96 90 69 3c
       -0.0016630905 0.052452505 -0.05159012 0.014255663
000160 80 b1 c7 bd d3 73 1d ba 5f a8 9d bd c6 be 14 bc
       -0.09750652 -0.0006006334 -0.0769813 -0.009078687
000170 7a 70 c3 bc cb d2 15 3c ff 8d 8b 3d 6f 6e f2 3b
       -0.023857344 0.009144495 0.06814193 0.0073984186
000180 ff 2a 82 bc a7 91 32 bd e9 86 74 bb 57 48 22 3d
       -0.015889643 -0.043595936 -0.0037311858 0.03961977
000190 25 f3 b8 bc a2 b6 7a 3d 75 70 4b 3d db 52 a9 bd
       -0.022576878 0.06120933 0.049667794 -0.082677566
0001a0 e6 dc d0 bc 7c 7b 5f 3d 9d a9 44 bd a2 93 41 3d
       -0.025495958 0.054561123 -0.04801332 0.047259934
0001b0 01 8f 60 bc 57 d9 c5 3b 8f c3 d7 3b 71 3e d8 bc
       -0.01370597 0.006037872 0.0065845917 -0.026396962
0001c0 e7 0e ce bd f9 0c 4b bd 8e 11 32 3c 7c f7 bf bb
       -0.10061436 -0.04957292 0.010868443 -0.00585836
0001d0 2f 39 d6 bd 85 2d 2a ba 2e d0 06 3c ac d3 37 3d
       -0.10460126 -0.0006491768 0.008228345 0.0448796
0001e0 87 17 10 be 2c 77 6d bc 52 7b c3 ba 03 88 e1 bb
       -0.14071475 -0.014493745 -0.0014914072 -0.006882669
0001f0 9d a3 93 3c 60 9b d6 3d 43 c3 e5 3c 44 0c fa ba
       0.018022353 0.10478854 0.02804721 -0.0019077142
000200 55 74 22 3d fc 57 a3 3c f9 f0 b0 3d 0d ba 7b bd
       0.039661724 0.019939415 0.08639712 -0.06145673
000210 d5 8b a7 3b e7 12 34 bd 9a c3 2d bb 1f ca a8 3d
       0.005113105 -0.04396334 -0.0026514293 0.082416765
000220 68 01 f2 3c c6 d3 dc bc 7f bb 8d bd ef 2c 15 3e
       0.029541686 -0.02695645 -0.06920528 0.14567922
000230 4d d3 73 bd e0 40 a5 bc ca a0 18 bd 66 a0 07 3d
       -0.059527684 -0.020172536 -0.037262715 0.033111952
000240 f8 e0 94 bd 04 80 3b 3c 91 63 26 bd 25 6f 93 bd
       -0.07269472 0.0114440955 -0.040622298 -0.071989335
000250 67 d9 a4 3b a8 04 a6 3d 0f b3 62 3c 59 a5 1f 3d
       0.005030799 0.08106357 0.013836636 0.038976047
000260 95 84 96 bc e3 40 1e 3d ce d3 17 3d 77 06 63 3c
       -0.018373767 0.0386361 0.037067227 0.013856522
000270 60 db d2 bd 4f c1 45 3a 4e 41 5d bd 89 f9 9b 3b
       -0.10295749 0.0007543759 -0.054017358 0.0047599715
000280 0b b5 d7 ba 9c 99 3f 3c f3 11 b6 3d 8c c7 51 bb
       -0.0016457153 0.011694338 0.08890142 -0.0032009808
000290 c1 db 21 bd 1b 37 8f bc 07 ba 27 bd d0 52 4e bd
       -0.039516214 -0.017482331 -0.040948894 -0.050371945
0002a0 db 3a 47 3d d0 8e a4 3c e7 29 da 3d ca 63 2f bc
       0.048640113 0.02008763 0.106525235 -0.010704944
0002b0 40 01 3d 3b d5 9e c8 3a d7 8e 02 3c 1e 1d 05 3c
       0.0028839856 0.0015306125 0.007968626 0.008124618
0002c0 ab c1 ee bc 58 7e 80 bd 94 9e 92 3c 9a 5b a7 bc
       -0.029145082 -0.06274098 0.017897882 -0.020429421
0002d0 19 fc a3 bd d4 98 88 bc 9b 8b 6f 3d 83 c5 02 bc
       -0.08007068 -0.016674437 0.058482748 -0.007981661
0002e0 5e f6 6c 3d 31 b8 08 bc b2 10 8c bc 83 0d bc 3d
       0.05785214 -0.008344696 -0.017097805 0.09182265
0002f0 d4 0c 02 3c 77 35 85 bc d5 9d 68 3d 0a dc cd bc
       0.007937629 -0.016260846 0.056791145 -0.025129337
000300 fc a3 7b 3c 6e 04 a7 bc 07 50 d9 bd ff 35 d2 3d
       0.015358921 -0.020387854 -0.10610967 0.10264205
000310 d2 82 5d 3d 04 e8 37 bc ad b4 0b 3c ba f6 43 bc
       0.054079838 -0.01122475 0.008526963 -0.01196068
000320 ef 3a 9b 3c 04 3a 90 3c 5e 3a 6b bc f6 2f 86 3c
       0.018949 0.017605789 -0.014357178 0.016380291
000330 94 c1 60 bc ca 57 b5 bd 39 6b a3 3c 01 49 cc 3c
       -0.013718028 -0.08854635 0.019948589 0.024937155
000340 eb 21 44 bd 4d 69 34 3d ff 45 6b bd e7 48 a3 3d
       -0.04788391 0.044045735 -0.0574398 0.079728894
000350 7c 7b f8 3a c2 47 08 bc 0b 42 72 3d f8 35 80 3d
       0.00189577 -0.00831789 0.059145015 0.06260294
000360 ab 55 ed bc d5 72 70 bd ca 9d 68 bd 20 8b 8e 3d
       -0.028971514 -0.058703262 -0.056791104 0.0696013
000370 54 e5 7d 3d 7f 11 f0 bb 5b 4d cd bb 5c d5 07 bc
       0.061986282 -0.0073263044 -0.006265325 -0.008290615
000380 44 91 1a 3b fb b6 a9 bd 7e a2 9e 3c 58 7c 26 3d
       0.002358512 -0.08286854 0.019364592 0.040645927
000390 7b 8f 94 3c d3 da 1d 3d bc a9 7b 3b f6 80 f5 bb
       0.018134823 0.038538765 0.003840073 -0.00749218
0003a0 3b ed 94 3d 4a ff a4 bc 88 d5 b0 bd c9 be b9 bd
       0.072718106 -0.020141263 -0.08634478 -0.090695925
0003b0 a2 99 6c bc 58 95 23 bc 4c 76 91 3a 1b 63 a5 bd
       -0.014440926 -0.009984337 0.0011097877 -0.080755435
0003c0 38 6b 12 3c 9c f6 22 bd a2 fa 3d bb 4b cd 19 3d
       0.008936696 -0.039785966 -0.00289885 0.0375493
0003d0 c6 b7 93 3d 02 4a 15 be ad 34 1f bd 79 0b 07 3b
       0.072127864 -0.14579013 -0.038868595 0.0020606203
0003e0 26 75 27 3d ad 4a f1 3c ec 3b da 3c 56 a4 1e 3c
       0.040883206 0.029454553 0.026639901 0.009682735
0003f0 5c 56 4c 3d 06 24 21 bd 8a 49 17 bd 5a cd 08 bd
       0.049887046 -0.039340995 -0.036935367 -0.033398964

actor.6.bias f4 [12]
000000 f3 89 2f be c6 27 2f 3e 04 c7 32 bd df b6 33 3d
       -0.17142467 0.17105016 -0.043646827 0.04387557
000010 ab db 0a be c3 b9 0b be f4 31 7f 3c 53 54 69 3c
       -0.13560359 -0.13645081 0.015575875 0.014241296
000020 ec c9 57 3e 48 3c 57 3e 0a 15 29 3e d3 7a 2b 3e
       0.21073121 0.21019089 0.16511932 0.16746072
