tested_policies/go2/go2_last/exported/cuncurrent_state_estimator.pth (torch, 170873 bytes, 6 tensors)

fc1.weight f4 [128, 260]
0.00051231 0.00016924327 -0.0036006935 0.04090137 0.074958764 0.021325283 -0.1779549 0.093430705
-0.001171473 0.3875067 -0.06473701 -0.011271184 -0.05973325 1.50274645e-05 0.017871164 0.08556265
0.071680546 -0.06736761 -0.5646669 0.07160854 0.083246104 -0.06812898 -0.8123255 0.1557533
0.0023094197 0.01130616 0.00070936274 -0.005087054 0.002463746 0.01827793 0.06408328 0.011086417
-0.0017550287 -0.0014466795 0.032614462 0.00020376337 -0.010478731 -0.017494526 -0.009229149 0.044807825
-0.008849832 -0.040181346 -0.054301452 -0.018043252 0.0010239909 -0.0072391173 0.026370037 -0.025127884
0.017143479 0.054534175 -0.025204355 0.022594517 0.0025940267 -0.00047331094 -0.0055161323 0.059640102
0.26971486 0.06170589 -0.11334706 0.19187815 0.0021108452 0.1626881 0.027378445 -0.034093063
-0.04258032 0.04070014 -0.023093939 -0.054045904 0.024749778 -0.060020547 -0.4531194 0.042797126
0.047348272 -0.042842265 -0.6281801 0.083798565 0.0048046354 0.005943603 0.03327652 0.0020158235
-0.0010964986 0.0093394155 0.1990589 0.006342705 -0.0017996264 -0.008954132 0.0051185666 -0.00020100317
0.003554376 -0.024431044 -0.05090142 0.00044249464 -0.019028232 -0.054565884 -0.054233387 -0.0013720684
0.015554426 0.03154356 0.009106096 -0.010269925 0.030666169 0.020095991 -0.014971857 -0.04074632
0.0033931707 -0.0013507616 -0.01222787 -0.19879334 -0.21677154 -0.03167163 -0.089522265 0.13162516
-0.055443067 0.13492735 0.0534933 0.049124468 -0.09024614 -0.056076173 -0.0032962046 -0.06391883
0.055109184 -0.03255206 -0.30992314 -0.058864664 0.05924234 -0.041256234 -0.42292145 -0.00694056
-0.0027399855 0.008868199 -0.13792717 -0.012637343 0.005358269 0.009993392 0.04825905 -0.0055506774
-0.005664402 -0.010347771 0.35756278 0.0011870627 0.010277395 -0.019002032 -0.002580524 0.008006743
-0.007812563 -0.061006512 -0.106028564 0.026228935 0.02762678 0.07666378 0.017072912 -0.0300932
-0.007225114 -0.022700327 -0.024893118 0.020853106 -0.0019935532 -8.5223124e-05 -0.0056044115 -0.25549763
-0.20697741 -0.08389386 -0.054636065 0.13330695 -0.088725604 0.08684124 0.06751268 -0.031709574
0.02796319 0.012643289 0.02600026 0.01081346 -0.027440013 -0.16139147 -0.33203754 -0.07926373
0.09021134 -0.023677101 -0.31800595 0.04052635 0.007350943 0.0075614885 -0.11954873 0.006082806
-0.0079277605 0.00959811 0.06488581 0.0026069968 0.009122895 -0.009509935 0.35802865 -0.009183884
-0.055031754 -0.058647882 -0.014847058 -0.04323245 0.047734637 -0.036863647 -0.10595678 0.016917663
-0.036558058 0.035899825 0.06293433 -0.009463751 -0.032426298 0.015311714 0.009768763 0.031361476
-0.004427384 0.005119312 0.0025784818 0.02860668 0.079339534 -0.010982311 0.0653464 0.024711128
-0.07244236 0.10832048 0.021974193 0.009922793 -0.014189584 -0.025943048 0.03131415 -0.10089583
-0.1606411 -0.15031287 -0.43582428 -0.2836628 0.13544406 -0.027661229 -0.14781536 -0.0077557983
0.0036881247 -0.003276015 0.019407786 -0.0028721152 0.0064981887 -0.0054718223 0.03391785 0.0073223733
0.003514867 -0.009783938 0.0032967823 -0.003965312 -0.018389063 0.00017532417 -0.0013072608 0.029512197
-0.005529572 0.015925707 -0.05728177 0.013266608 0.012027084 -0.0044781393 0.06818251 -0.013975625
00000000: 8b4c 063a e576 3139 9df9 6bbb 3288 273d
00000010: fb83 993d 5cb2 ae3c cf39 36be 9958 bf3d
00000020: 1c8c 99ba 4767 c63e d694 84bd c6aa 38bc
00000030: daaa 74bd 781e 7c37 8c66 923c 783b af3d
00000040: 40cd 923d 08f8 89bd 038e 10bf 80a7 923d
00000050: ef7c aa3d 3587 8bbd 90f4 4fbf cb7d 1f3e
00000060: a259 173b 793d 393c 87f4 393a 4db1 a6bb
00000070: cc76 213b 99bb 953c 183e 833d cea3 353c
00000080: fe08 e6ba 829e bdba be96 053d 50a9 5539
00000090: fcae 2bbc ae50 8fbc db35 17bc 6988 373d
000000a0: e3fe 10bc 3295 24bd 336b 5ebd 71cf 93bc
000000b0: 6f37 863a 1e36 edbb fa05 d83c fed8 cdbc
000000c0: 7b70 8c3c 3a5f 5f3d 5d79 cebc 2318 b93c
000000d0: 8c00 2a3b b826 f8b9 acc0 b4bb 2e49 743d
000000e0: 1118 8a3e 51bf 7c3d 8122 e8bd b57b 443e
000000f0: 1b56 0a3b b697 263e c348 e03c 2ba5 0bbd
00000100: b468 2ebd 31b5 263d 802f bdbc 3d5f 5dbd
00000110: 0cc0 ca3c 1bd8 75bd 44ff e7be 0a4c 2f3d
00000120: 43f0 413d 5f7b 2fbd 69d0 20bf 959e ab3d
00000130: 3470 9d3b 8ec2 c23b f64c 083d e81b 043b
00000140: 63b8 8fba 5904 193c 19d6 4b3e 77d6 cf3b
00000150: 71e1 ebba 5ab4 12bc a6b9 a73b 61c4 52b9
00000160: 89f0 683b 9d23 c8bc 027e 50bd a0fe e739
00000170: 18e1 9bbc 7a80 5fbd d423 5ebd fad6 b3ba
00000180: fed7 7e3c d233 013d bc31 153c 3043 28bc
00000190: 9e37 fb3c 59a0 a43c 854c 75bc 9de5 26bd
000001a0: f55f 5e3b 0a0c b1ba 6757 48bc 7b90 4bbe
000001b0: 5cf9 5dbe 1cba 01bd 7357 b7bd bfc8 063e
000001c0: 4518 63bd 652a 0a3e ca1b 5b3d bd36 493d
000001d0: f8d2 b8bd 21b0 65bd 2305 58bb e0e7 82bd
000001e0: 2bba 613d 4f55 05bd 3fae 9ebe 131c 71bd
000001f0: 19a8 723d 4cfc 28bd 2989 d8be a36d e3bb
00000200: 5491 33bb ec4b 113c c83c 0dbe dc0c 4fbc
00000210: 6b94 af3b 53bb 233c 48ab 453d 75e2 b5bb
00000220: 739c b9bb b389 29bc 7812 b73e 3797 9b3a
00000230: 8562 283c 26aa 9bbc 021e 29bb b72e 033c
00000240: 4400 00bc f7e1 79bd 8125 d9bd 10de d63c
00000250: 8f51 e23c e601 9d3d 7edc 8b3c 0486 f6bc
00000260: a6c0 ecbb 09f6 b9bc a7ec cbbc 22d4 aa3c
00000270: 46a6 02bb d1b9 b2b8 36a5 b7bb 96d0 82be
00000280: e3f1 53be 8bd0 abbd 11ca 5fbd 9e81 083e
00000290: c5b5 b5bd d2d9 b13d 1744 8a3d e6e1 01bd
000002a0: 0f13 e53c cc25 4f3c 7ffe d43c f02a 313c
000002b0: e1c9 e0bc ce43 25be d300 aabe 0655 a2bd
000002c0: b9c0 b83d 7bf6 c1bc add1 a2be f5fe 253d
000002d0: 2ee0 f03b 5dc6 f73b f7d5 f4bd 4652 c73b
000002e0: 70e3 01bc 6441 1d3c dae2 843d 26da 2a3b
000002f0: 3278 153c 8fcf 1bbc 884f b73e 0078 16bc
00000300: fa68 61bd c338 70bd 1341 73bc 8214 31bd
00000310: 6585 433d 56fe 16bd deff d8bd e996 8a3c
00000320: e7bd 15bd b20b 133d b7e3 803d d90d 1bbc
00000330: 70d1 04bd fcdd 7a3c 290d 203c e474 003d
00000340: 9713 91bb e7bf a73b bffb 283b 8e58 ea3c
00000350: c47c a23d 27ef 33bc 55d4 853d fe6e ca3c
00000360: a95c 94bd 21d7 dd3d 3903 b43c 3693 223c
00000370: 6e7b 68bc 8486 d4bc 4443 003d 79a2 cebd
00000380: 1a7f 24be 9eeb 19be 5c24 dfbe 403c 91be
00000390: d9b1 0a3e cd99 e2bc e95c 17be 5a24 febb
000003a0: 77b4 713b 69b2 56bb 14fd 9e3c 193a 3cbb
000003b0: c2ee d43b f94c b3bb 72ed 0a3d 85f0 ef3b
000003c0: af59 663b cf4c 20bc d40e 583b 73ef 81bb
000003d0: a9a4 96bc 39d7 3739 6558 abba 90c3 f13c
000003e0: 6931 b5bb a176 823c 4aa0 6abd 305c 593c
000003f0: 3f0d 453c 5bbd 92bb 46a3 8b3d 05fa 64bc

fc1.bias f4 [128]
0.07308217 0.07180937 0.014956977 -0.04668573 -0.1124537 0.1077471 -1.0194936 0.10473821
0.047582265 -0.14739574 -0.32480103 0.065581515 0.032214142 -0.33985424 0.011612695 0.069692515
0.04297457 -0.17150588 -0.3278543 -0.20352264 -0.13663056 -0.022633702 0.06195851 0.23978826
0.005103189 -0.13961849 -0.25025222 -0.23961923 -0.02412324 0.08843037 -0.041682668 0.20422077
-0.16049252 0.11758391 0.005857969 0.14428075 0.04960552 0.053356502 0.24708685 -0.52472943
-0.043013517 -0.021215545 -0.09933915 0.08204091 -0.28500992 0.0059289685 0.02631768 -0.15427096
-0.4973252 -3.6968384 0.50842464 -0.24606344 0.26201376 -0.17104961 -0.047217503 -0.0033189044
0.09961095 -0.32424095 -0.011739585 0.24846764 -0.021737015 0.13685745 0.06422706 -0.07873964
0.12293409 -0.20940025 -0.14034058 0.28801826 -0.0020279218 0.3501441 -0.16402893 0.098243564
-0.28261518 -0.22949116 -0.02398055 0.009160164 -0.155882 -0.17896764 0.042754967 -0.2776555
0.07286225 -0.7805885 -0.070833385 -0.22018516 0.023596175 0.07455056 0.17547542 -0.03145797
-0.22053494 0.020242684 -0.34857893 0.01098851 -0.4095783 -0.33475205 0.26783887 0.09601924
-0.06240302 0.22475123 0.06782208 -0.05320647 -0.37443584 0.2632761 -0.031514596 0.01945033
0.1632791 0.27270016 -0.045167267 -0.86923903 -0.19290918 -0.43519005 -0.26485792 0.23213893
0.0560376 0.10677736 -0.110682584 -0.26490098 0.22421815 -0.21588317 -0.09825501 -0.10281267
0.010952415 0.09265126 -0.134925 -0.36565018 -0.08603226 0.27929902 -0.026340323 -0.23923634
00000000: 1bac 953d ca10 933d 1c0e 753c 8939 3fbd
00000010: 204e e6bd 83aa dc3d c47e 82bf fd80 d63d
00000020: 9fe5 423d e9ee 16be 524c a6be 9a4f 863d
00000030: faf2 033d 6001 aebe 2c43 3e3c f3ba 8e3d
00000040: 1a06 303d 3d9f 2fbe 85dc a7be 3d68 50be
00000050: e2e8 0bbe 506a b9bc 35c8 7d3d 0e8b 753e
00000060: a738 a73b 26f8 0ebe 0f21 80be be5e 75be
00000070: 1a9e c5bc fb1a b53d 72bb 2abd 401f 513e
00000080: 2758 24be d5cf f03d 35f4 bf3b 55be 133e
00000090: 282f 4b3d 598c 5a3d 5604 7d3e ab54 06bf
000000a0: f12e 30bd 39cc adbc 5372 cbbd 1105 a83d
000000b0: d2ec 91be cb47 c23b 2d98 d73c 35f9 1dbe
000000c0: 69a1 febe 0099 6cc0 1e28 023f 0ef8 7bbe
000000d0: ab26 863e a127 2fbe 2467 41bd fa81 59bb
000000e0: d300 cc3d e902 a6be 6357 40bc 4d6e 7e3e
000000f0: d311 b2bc 5c24 0c3e 7a89 833d 4042 a1bd
00000100: dec4 fb3d 056d 56be 71b5 0fbe 2177 933e
00000110: e2e6 04bb 1646 b33e 33f7 27be ec33 c93d
00000120: f0b2 90be bbff 6abe dc72 c4bc 8314 163c
00000130: 889f 1fbe 4b43 37be d51f 2f3d dd28 8ebe
00000140: ce38 953d a6d4 47bf 1811 91bd 3878 61be
00000150: c44c c13c f7ad 983d d4af 333e 13da 00bd
00000160: e9d3 61be fcd3 a53c f078 b2be 2709 343c
00000170: 3fb4 d1be 9f64 abbe 2d22 893e bca5 c43d
00000180: 4f9a 7fbd 3025 663e 4de6 8a3d 07ef 59bd
00000190: 0eb6 bfbe 20cc 863e 7315 01bd 4c56 9f3c
000001a0: a332 273e 5b9f 8b3e 5001 39bd 7386 5ebf
000001b0: fc89 45be 3bd1 debe 759b 87be d4b5 6d3e
000001c0: af87 653d 17ae da3d 8dad e2bd 1aa1 87be
000001d0: 7199 653e 7a10 5dbe ec39 c9bd 738f d2bd
000001e0: c271 333c f2bf bd3d c729 0abe 8036 bbbe
000001f0: ae31 b0bd 4800 8f3e a9c7 d7bc 5ffa 74be

fc2.weight f4 [64, 128]
-0.005380837 0.014235514 0.107611336 -0.032247536 -0.029391227 0.0147405835 0.085623406 0.2348392
-0.022406474 -0.052371673 -0.0020201586 -0.12146802 -0.007878477 -0.003570156 0.012372072 0.15879329
0.15570013 0.11830943 -0.043375764 -0.17569096 -0.0035679436 0.03294245 0.074607745 -0.015407725
-0.030961921 -0.038234398 -0.07420224 -0.019778032 0.013139215 0.025776425 0.0017282708 0.021901267
0.0019882533 0.063713945 -0.06343855 -0.0004606612 0.03371588 0.0054013818 -0.12620218 0.028465468
-0.024481133 0.037500367 0.00968999 0.048326835 -0.007623185 0.0102031 0.12949732 -0.11801093
-0.20810662 -0.12880404 0.15899627 0.0012690518 -0.07717778 0.1297828 0.030011676 0.015067025
0.22189611 0.14299436 0.00010022219 0.04135778 -0.03113337 0.040541913 -0.12818189 0.004875568
-0.003785292 -0.10109332 0.084074214 -0.028313464 -0.08101546 0.07031964 -0.04893808 0.00019818784
0.04748311 -0.034326337 -0.14170429 0.009209912 0.008951048 -0.16003257 0.00036876908 -0.0790191
0.04132032 -0.07985745 -0.06280881 -0.07838163 -0.009320197 -0.0071193753 -0.19772786 0.010563802
-0.15291312 -0.07863613 0.024662716 0.0049858037 -0.006816091 -0.008286762 -0.045946226 -0.02426451
0.032522995 -0.017824482 -0.023821661 0.002431039 0.028055843 0.1312269 0.11916544 0.08946005
-0.11729968 0.048856497 0.04284049 -0.032604 0.021336935 0.057881653 0.016248204 -0.0041674683
0.0026733049 -0.039423138 -0.100283846 0.09920747 0.041720077 -0.013940306 0.15495881 -0.043501396
-0.13126905 -0.6225251 0.060266856 -0.7494831 -0.0026592906 -0.00195076 -0.050766565 0.0012261465
0.018510133 0.0044440823 -0.018108623 0.018098317 -0.048660096 -0.0465641 0.08841981 -0.0089471415
0.011359968 -0.08116698 0.046848528 -0.102043726 -0.009370506 -0.02020173 0.10553158 0.11570862
0.09293135 -0.005225482 -0.05460059 -0.101102136 0.03874175 -0.13345902 0.03452173 0.047534972
-0.01664785 -0.017259005 0.03357732 -0.12690748 -0.023797594 0.13088924 -0.080681995 0.04837767
-0.0012937722 0.048133176 -0.10493796 0.030535622 0.20335357 0.007145166 -0.35594687 -0.099568576
0.019685686 0.17610249 0.009069177 0.1779481 -0.11020492 -0.019043215 -0.02011316 0.03867175
-0.17975816 -0.22160372 -0.052632652 0.08228764 -0.11386889 0.11680237 0.00026288014 -0.022824459
-0.11045277 0.2102248 -0.034104098 0.14159639 0.17772238 0.24892887 -0.1796995 -0.04041807
-0.030718422 -0.29988554 0.2307154 0.1075164 0.03352459 0.024434734 -0.15275839 -0.0038811483
-0.036283243 -0.06856474 -0.102389485 -0.044793095 -0.040089224 -0.07334172 -0.06289345 -0.28218126
0.06551097 -0.17477503 -0.020945119 -0.18339115 0.044607617 -0.009995579 -0.24127215 0.008013023
0.035366595 0.10689137 0.0034083868 -0.040522438 -0.02315859 0.0130102495 -0.17446847 -0.031288475
0.010593442 0.10102478 -0.090355106 0.04355818 0.15583146 0.045347277 -0.052187387 0.27495164
-0.20069833 0.119092494 -0.027395537 -0.09175525 0.060580194 0.031196034 0.054617085 0.26219168
0.006547938 0.0442424 0.017507415 -0.031585265 0.087253176 0.06330535 0.009173842 -0.21895477
-0.02398639 0.022372471 0.19915935 -2.152064 0.09478772 -0.034869686 -0.034561656 -0.06948182
00000000: bb51 b0bb 133c 693c 5563 dc3d fe15 04bd
00000010: dfc5 f0bc 7d82 713c 535b af3d b079 703e
00000020: c88d b7bc ae83 56bd a364 04bb 3ac4 f8bd
00000030: ba14 01bc 47f9 69bb 3bb4 4a3c b59a 223e
00000040: db6f 1f3e 374c f23d c9aa 31bd 55e8 33be
00000050: 29d4 69bb aaee 063d f2cb 983d af70 7cbc
00000060: dba3 fdbc ac9b 1cbd 58f7 97bd 8a05 a2bc
00000070: dd45 573c 1529 d33c 2587 e23a 496a b33c
00000080: 5b4d 023b 757c 823d 12ec 81bd e684 f1b9
00000090: aa19 0a3d 13fe b03b 253b 01be 6a30 e93c
000000a0: a88c c8bc fc99 193d c4c2 1e3c 5cf2 453d
000000b0: e9cb f9bb e72a 273c f29a 043e b7af f1bd
000000c0: e719 55be 35e5 03be ebcf 223e 5056 a63a
000000d0: 620f 9ebd c8e5 043e 0cdb f53c afdb 763c
000000e0: bc38 633e 1d6d 123e 612e d238 c766 293d
000000f0: 690b ffbc 470f 263d 1d42 03be 3bc3 9f3b
00000100: a912 78bb 040a cfbd 1a2f ac3d a3f1 e7bc
00000110: 6feb a5bd be03 903d 4c73 48bd a5d0 4f39
00000120: a67d 423d c699 0cbd ee1a 11be 2ce5 163c
00000130: 6ba7 123c 94df 23be 5957 c139 c4d4 a1bd
00000140: 7f3f 293d 4e8c a3bd e8a1 80bd 8c86 a0bd
00000150: bdb3 18bc a649 e9bb 2c79 4abe cc13 2d3c
00000160: 4295 1cbe fb0b a1bd 7709 ca3c f45f a33b
00000170: 8459 dfbb 33c5 07bc 1c32 3cbd 5ec6 c6bc
00000180: d536 053d a604 92bc a525 c3bc 1152 1f3b
00000190: 5ed5 e53c 5860 063e 030d f43d d536 b73d
000001a0: d13a f0bd c01d 483d 8279 2f3d c68b 05bd
000001b0: ccca ae3c 5015 6d3d f41a 853c 428f 88bb
000001c0: 9d32 2f3b 287a 21bd 9e61 cdbd 492d cb3d
000001d0: ace2 2a3d e265 64bc 86ad 1e3e 852e 32bd
000001e0: 656b 06be ce5d 1fbf 61da 763d 20de 3fbf
000001f0: 7e47 2ebb a5b0 ffba 9af0 4fbd a6b6 a03a
00000200: 90a2 973c aa9f 913b 8958 94bc ec42 943c
00000210: cf4f 47bd ffb9 3ebd 7215 b53d 0897 12bc
00000220: 291f 3a3c e03a a6bd 3ee4 3f3d 4dfc d0bd
00000230: c086 19bc 197e a5bc f120 d83d a4f8 ec3d
00000240: cb52 be3d 853a abbb dea4 5fbd a30e cfbd
00000250: abaf 1e3d 7ba9 08be a866 0d3d 08b4 423d
00000260: 1261 88bc c262 8dbc 5f88 093d 09f4 01be
00000270: 2cf3 c2bc d407 063e 9a3c a5bd aa27 463d
00000280: cb93 a9ba 4b27 453d b7e9 d6bd d725 fa3c
00000290: eb3b 503e ff21 ea3b ab3e b6be 9cea cbbd
000002a0: e043 a13c 3654 343e e396 143c 0738 363e
000002b0: 1eb3 e1bd 8400 9cbc 5bc4 a4bc 4566 1e3d
000002c0: 8612 38be 16ec 62be 5695 57bd 6c86 a83d
000002d0: 1834 e9bd 1536 ef3d 2dd3 8939 5cfa babc
000002e0: 1035 e2bd 2c45 573e bdb0 0bbd a5fe 103e
000002f0: dbfc 353e 36e7 7e3e 2503 38be 6b8d 25bd
00000300: 33a5 fbbc 998a 99be a840 6c3e 8f31 dc3d
00000310: 1551 093d 5a2b c83c b26c 1cbe dd5a 7ebb
00000320: bd9d 14bd ac6b 8cbd 94b1 d1bd f778 37bd
00000330: 9934 24bd 2f34 96bd 48ce 80bd 107a 90be
00000340: 9e2a 863d 3af8 32be 1995 abbc e4ca 3bbe
00000350: 7ab6 363d 7fc4 23bc 0c10 77be 0e49 033c
00000360: 90dc 103d dde9 da3d 3e5f 5f3b dbfa 25bd
00000370: 15b7 bdbc f128 553c dda7 32be 5828 00bd
00000380: 1e90 2d3c 14e6 ce3d 190c b9bd 106a 323d
00000390: 4892 1f3e 11be 393d 71c2 55bd 76c6 8c3e
000003a0: dd83 4dbe c4e6 f33d 9b6c e0bc 2dea bbbd
000003b0: f022 783d d38e ff3c 2ab6 5f3d fd3d 863e
000003c0: 1690 d63b 8537 353d b66b 8f3c 8d5f 01bd
000003d0: cbb1 b23d 3ca6 813d e24d 163c ae35 60be
000003e0: 1b7f c4bc 7946 b73c 6ef0 4b3e 6bbb 09c0
000003f0: 1020 c23d 84d3 0ebd 8690 0dbd 7c4c 8ebd

fc2.bias f4 [64]
-0.065961845 -0.42610905 -0.36183098 -0.37075636 0.086113855 0.075099096 0.14787085 0.09652186
-0.31133232 0.30720988 -0.24199814 -0.35446876 0.27434543 0.038312256 -0.03747082 -1.0244652
-0.53494644 -0.23041837 -0.27733505 -2.448239 -0.076965705 -0.3495361 0.18109326 1.0322435
-0.26313615 0.026040917 -0.7080466 -0.042745087 -0.05776004 0.0047238125 -0.090781115 -0.06457101
-0.61469704 -0.026449371 0.14573334 -0.025431566 0.021575576 0.052598003 -0.0634456 -0.22972058
0.57878053 -0.034067955 0.0383878 -0.41037482 0.064680375 0.058002837 0.0206922 -0.45007962
-0.08087953 0.2742926 0.008139615 -0.30185345 0.07699764 -2.0237052 -0.03143847 0.07930234
-0.30879033 0.030775499 -2.4638023 0.10741444 -0.0034026715 -1.6112709 -0.05455805 -0.10814789
00000000: 0117 87bd f72a dabe e941 b9be c7d3 bdbe
00000010: 765c b03d 8ecd 993d 756b 173e 41ad c53d
00000020: f366 9fbe 9d4a 9d3e 5cce 77be ee7c b5be
00000030: 0177 8c3e 50ed 1c3d 017b 19bd ad21 83bf
00000040: 40f2 08bf cbf2 6bbe dcfe 8dbe f3af 1cc0
00000050: 32a0 9dbd 65f6 b2be 8370 393e 8e20 843f
00000060: c8b9 86be c353 d53c 8b42 35bf 7915 2fbd
00000070: cb95 6cbd 36ca 9a3b 73eb b9bd ce3d 84bd
00000080: c95c 1dbf 5aac d8bc 1f3b 153e dc55 d0bc
00000090: 43bf b03c 0171 573d c4ef 81bd df3b 6bbe
000000a0: f62a 143f d78a 0bbd 873c 1d3d a61c d2be
000000b0: 2577 843d 6294 6d3d b082 a93c d670 e6be
000000c0: 2ba4 a5bd 1470 8c3e 055c 053c 898c 9abe
000000d0: f0b0 9d3d 6384 01c0 a0c5 00bd 4469 a23d
000000e0: c419 9ebe e61c fc3c f0ae 1dc0 1afc db3d
000000f0: 5bff 5ebb 203e cebf 4378 5fbd a47c ddbd

fc3.weight f4 [3, 64]
-0.025831126 0.041961875 -0.048482064 -0.059561964 0.04388116 0.033107035 -0.00802976 -0.006953901
-0.028280055 0.015053596 -0.032510985 0.0133031355 -0.029744938 -0.0038152514 -0.0029592935 0.10651205
0.0039132587 0.024197396 -0.013904868 -0.06713244 0.027836613 0.034610458 -0.03818169 -0.027912868
-0.0019217839 0.018522974 0.01034933 0.017347645 0.045162007 -0.009002876 0.035603993 -0.15729165
-0.10233449 -0.012322555 0.0014887948 0.014071624 0.044038456 0.16380076 0.0059693735 -0.11134923
0.004388405 0.058518413 0.07278121 0.015529561 -0.007164052 -0.012725963 0.0046154116 -0.03518373
0.01212108 -0.0021768063 -0.06660127 -0.011571137 -0.024047341 -0.016507879 -0.0115709 -0.004713161
-0.010812598 -0.065228514 -0.0026525639 -0.04641489 -0.003942184 0.014865262 0.015584871 0.00018940248
-0.053527676 0.016126493 0.07882718 -0.05158976 0.009043298 0.0069747795 0.054220174 -0.00039847533
-0.00024189301 -0.00043347658 0.063772224 0.002230767 -0.012934562 0.0010529255 -0.024355331 0.03988375
0.00044948753 -0.077436 -0.19212307 -0.040627457 -0.02348274 -0.009430491 -0.008504786 -0.012570818
0.030390922 -0.0042603374 -0.024191445 0.050037377 0.04800265 -0.038151175 0.0010267629 0.11476183
0.051560555 -0.058871012 0.0023947551 0.02799308 -0.011298701 0.08137954 0.027710862 0.015165975
-0.045135424 0.0041764495 -0.0056379614 -0.034478195 0.029985188 0.03284027 0.007618753 -0.004540899
-0.052918382 -0.00020010573 0.021721678 0.0021548355 -0.041422073 -0.0038219052 0.010709808 -0.011709068
0.031757746 0.01396236 -0.005380703 0.018589072 0.0036454063 0.13014176 -0.0047693155 0.003535013
-0.0011389295 0.011584592 -0.010863513 -0.015825966 -0.0018908298 0.030286334 -0.0021530439 0.03522005
-0.03578547 0.07328303 0.046147853 -0.031303287 -0.004455481 0.032237556 -0.034858204 0.0021620768
-0.017010247 -0.00636768 -0.024282983 -0.005791001 0.010680676 0.0027242857 0.0077388743 0.023783475
0.00038516638 -0.008591122 0.09775089 -0.015447736 -0.013397247 -0.0067245252 -0.021439794 -0.01592697
0.054712288 -0.0022938086 0.03929493 -0.0004968358 0.038324285 0.02053169 -0.04268074 -0.0028331997
0.017192464 0.0035703662 0.008529732 0.004893121 -0.00012733783 -0.012654369 0.026604807 -0.009936633
-0.021843528 -0.053476132 -0.010135643 0.020065412 0.0258045 -0.15841593 0.057366937 0.00590804
0.00794684 -0.044674173 -0.056554087 0.05228155 0.012486698 0.025722608 0.00794562 -0.021882927
00000000: cc9b d3bc 37e0 2b3d 2195 46bd 3ff7 73bd
00000010: bbbc 333d 3e9b 073d 418f 03bc 8ddd e3bb
00000020: 93ab e7bc 5ca3 763c 3d2a 05bd 65f5 593c
00000030: a8ab f3bc 4c09 7abb b5f0 41bb fd22 da3d
00000040: cb3a 803b 9e39 c63c 3ed1 63bc bc7c 89bd
00000050: 9c09 e43c b2c3 0d3d 6764 1cbd 87a9 e4bc
00000060: 5ee4 fbba 7ebd 973c 3c90 293c a61c 8e3c
00000070: ccfb 383d cc80 13bc 7ed5 113d 1011 21be
00000080: bf94 d1bd 8be4 49bc aa23 c33a ab8c 663c
00000090: ab61 343d 63bb 273e bc9a c33b 110b e4bd
000000a0: 9ccc 8f3b 01b1 6f3d 510e 953d b36f 7e3c
000000b0: 6dc0 eabb 8f80 50bc e13c 973b d11c 10bd
000000c0: 7f97 463c c0a8 0ebb 3f66 88bd de94 3dbc
000000d0: eefe c4bc 883b 87bc df93 3dbc dc70 9abb
000000e0: 5327 31bc 8796 85bd a3d6 2dbb 8a1d 3ebd
000000f0: 702d 81bb 6e8d 733c b057 7f3c 579a 4639
00000100: d63f 5bbd b51b 843c 2570 a13d c94f 53bd
00000110: 572a 143c b18c e43b f915 5e3d 74ea d0b9
00000120: a9a4 7db9 3e44 e3b9 039b 823d 0f32 123b
00000130: 7ceb 53bc 5102 8a3a d584 c7bc 255d 233d
00000140: 32a9 eb39 c496 9ebd e9bb 44be fa68 26bd
00000150: e05e c0bc 5982 1abc a857 0bbc d5f5 4dbc
00000160: 62f6 f83c 4d9a 8bbb 232d c6bc fef3 4c3d
00000170: 6d9e 443d 6844 1cbd 7294 863a 4008 eb3d
00000180: 2931 533d bb22 71bd 53f1 1c3b be51 e53c
00000190: 301e 39bc 51aa a63d e401 e33c b67a 783c
000001a0: ecdf 38bd 99da 883b a6be b8bb 0239 0dbd
000001b0: 7fa3 f53c 8583 063d bba6 f93b d2cb 94bb
000001c0: f2c0 58bd 79d3 51b9 a9f1 b13c 2438 0d3b
000001d0: 31aa 29bd ee78 7abb 3178 2f3c 64d7 3fbc
000001e0: 6914 023d 62c2 643c 9c50 b0bb 1c48 983c
000001f0: c5e7 6e3b e243 053e eb47 9cbb adab 673b
00000200: 2248 95ba 4dcd 3d3c e0fc 31bc 75a5 81bc
00000210: b8d5 f7ba 0c1b f83c 151a 0dbb e642 103d
00000220: c993 12bd 6a15 963d 8805 3d3d e037 00bd
00000230: 49ff 91bb 870b 043d 7ac7 0ebd a1b1 0d3b
00000240: 1359 8bbc f9a7 d0bb 1bed c6bc 70c2 bdbb
00000250: 01fe 2e3c ee89 323b 6296 fd3b 90d5 c23c
00000260: 28f0 c939 c7c1 0cbc 9e31 c83d 8018 7dbc
00000270: 2080 5bbc 6859 dcbb 82a2 afbc 4779 82bc
00000280: fe19 603d b953 16bb b8f3 203d 163e 02ba
00000290: edf9 1c3d 1332 a83c 00d2 2ebd 34ad 39bb
000002a0: 36d7 8c3c cefc 693b 4ac0 0b3c 7956 a03b
000002b0: fd85 05b9 4554 4fbc 53f2 d93c 42cd 22bc
000002c0: 33f1 b2bc ca09 5bbd f80f 26bc 3860 a43c
000002d0: f563 d33c c937 22be 98f9 6a3d 3b98 c13b
000002e0: 7633 023c 44fc 36bd 42a5 67bd 2e25 563d
000002f0: 0295 4c3c 38b8 d23c 592e 023c d343 b3bc

fc3.bias f4 [3]
0.009178798 -0.007846116 -0.05741461
00000000: ab62 163c ff8c 00bc 952b 6bbd
