tested_policies/go2/go2_last/exported/policy.pt (torch, 282934 bytes, 8 tensors)

weight f4 [128, 260]
00000000: da9b 403e 3131 d2be 5cd2 263d 6634 a23e
00000010: c4bf 853d 4e06 1cbd afbc 18bf 641e a23f
00000020: 986d 09be 5784 0cbc c1f4 de3d 9130 d33d
00000030: 3a7c 383d 2680 04bc 5956 9c3e 9024 8c3d
00000040: d1a2 9bbe be1f 13bd 0ff3 7ebe 3625 4c3e
00000050: 705f 93be 1d88 7c39 dec2 d9be 0997 14bc
00000060: 395a bfbb 32ee 073d efd8 163d 5ed9 833d
00000070: 3643 82bd 6162 8e3d e3a6 3b3d 192a a9bd
00000080: 856c 673a 3a67 0d3d d7d3 2abd b0ab 183d
00000090: 7046 4fbd 2cb5 bbbc 14d5 eabd c3a2 99bd
000000a0: 1d95 913d 6021 7b3d 1b2c c9bd f6fb e1bd
000000b0: c826 ca3d a302 963d 8e15 bd3d 8d8c c9bc
000000c0: 2092 0339 3953 e23d 6f7e df3d 4eec 883d
000000d0: b5e4 e83c 6ee0 e33c dd07 afbe 4329 c43d
000000e0: a2af 0ebd a85a 0cbc 1ce1 18bf b551 b73f
000000f0: 7670 acbd 9a57 10be aecb 39bd 5f13 8dbd
00000100: dfe8 ca3d f68c 07ba e7d2 a43e 6b83 9e3b
00000110: 3216 9cbe f8f0 2e3c b603 2abe 65a2 7a3e
00000120: b6ac c8be 46bd 02be 566e fdbe 3577 8a3d
00000130: 49df 113c 5e14 d03d 203b 513d 754d 933c
00000140: 683a 753c 6326 e7bb 3448 473d 46be 723c
00000150: 51b8 b7bd 5705 6b3d f77f ccbc 9e0d 623d
00000160: f2cf a7bd 4915 49be 1cf1 50be dfba 9cbd
00000170: 9d5d 3a3d 918d e33d fbc6 3ebe 1e7d 43bc
00000180: 2b3e 503e ebc5 25bd 801f c53d b2c9 04bc
00000190: 2fd1 023d 8a82 a73d 069b ea3c a950 2e3d
000001a0: f3d1 24bc 6894 003f 4834 6fbf e059 bb3d
000001b0: 8cca 0cbe 8769 1e3c 0a2f bdbe 95ff b13f
000001c0: 6449 ecbd 4fe4 70be 3d55 3ebc 1195 c43d
000001d0: 9d45 3c3e 0cea 413c 5a2f c83e 84b0 953c
000001e0: 9db0 81be 26c4 f8ba 2151 10be 6578 703e
000001f0: b015 f7be d84a 00be 1c49 07bf 8f67 b3bd
00000200: 7076 5c3d 20b6 7e3d 5853 0a3c 1d13 683c
00000210: 9323 6abd 63a9 68bd 47f4 4f3d 01cb 883d
00000220: 9081 d6bd c7ed bf3c e7e5 7c3d 1473 133c
00000230: ed8b a5bd ff8b 05be bfba 41be 9aab 6bbc
00000240: bd6b e83b c9c7 153e 8909 1abe 072c bbbc
00000250: cac7 3d3e 8a6f 8ebc 2db4 1c3e 5481 99bd
00000260: 620b a93d c77b db3a feeb 893d 9228 d73d
00000270: 9d43 0bbe 3b81 d43f d6e3 c2bf 8e7e 37be
00000280: e212 30bc aed5 92bd c6ba 24bf b3b3 ca3f
00000290: 7e4c 05be 4cac b6be d6ad d33c a887 61bc
000002a0: a3f6 e93d a091 fdbc 8df8 643e 429d ccbd
000002b0: 21c7 b6be 0c05 2b3d f4ab 53bd 31e3 873e
000002c0: 22d1 03bf b458 cfbd 5b94 f3be 8c00 41be
000002d0: ba98 d4bc 4a4a 33bd 3f80 e73d 6e01 5cbd
000002e0: 9876 babc 9998 a8bc 0baf 473d dcf3 55bd
000002f0: 688b 793c 7726 aebc ff7d 9fbc a0d5 9c3d
00000300: d53d 10be fc75 6fbe f0d5 cabe c09a 33be
00000310: ad66 7f3d 2906 6e3d d129 22be 1088 7bbd
00000320: 3a46 1e3e c903 01bd 6cab 303e e7b8 9abd
00000330: a4d0 0a3e 8cdf 993d 4a03 383d 5e7e ec3d
00000340: 3e21 17bf 995c 8040 230a 72c0 7e37 56bf
00000350: 0c25 273d 63e0 a03f b1b3 23bf aa47 c83f
00000360: e891 0bbe 7cb2 dcbe ac1a 57be 6d20 0ebe
00000370: 340f 7d3e 5553 20be e04c d03e 9a95 debd
00000380: 1144 9cbe 32ae 723e e9bb 84bd a704 5f3e
00000390: a29e 13bf a3bd 84be c5e4 b8be 8f41 8abe
000003a0: 58e2 383d d921 83be 8ccc 4d3d 30fc c4bd
000003b0: dff1 64be 97ee 0ebe a8d4 85bd 61ee 063e
000003c0: b89c 493b f934 2a3d 9627 12be e96f 543d
000003d0: 80d2 19bf 976c 96be 3fad c7be e807 69be
000003e0: bf6b fd3d d39b 403e b41c babd 66c1 b0bd
000003f0: 6e93 903e aae5 5fbe 4fe3 2d3e 7a47 b0bd
0.18809453 -0.41053155 0.040727958 0.31680602 0.06530717 -0.03809195 -0.5966291 1.2665524
-0.13420713 -0.008576474 0.10886527 0.10311998 0.045040347 -0.008087194 0.30534628 0.06842911
-0.30397657 -0.035918944 -0.24897407 0.1993607 -0.2878375 0.00024083299 -0.42531484 -0.009069213
-0.005839613 0.033186145 0.036827978 0.06437944 -0.06360476 0.06952358 0.045813452 -0.082599826
0.00088281214 0.034522273 -0.041705932 0.03727311 -0.050604284 -0.022913538 -0.11466423 -0.075017475
0.07108519 0.061311126 -0.098228656 -0.11034386 0.09870678 0.07324722 0.09232627 -0.024603153
0.0001254757 0.1105103 0.10912787 0.066856965 0.028429369 0.027816977 -0.34185687 0.095781825
-0.034835465 -0.008566536 -0.5971849 1.432181 -0.08419888 -0.14095917 -0.04536026 -0.0688846
0.09907698 -0.0005170846 0.32192156 0.0048374436 -0.30485684 0.010677569 -0.16602978 0.24476011
-0.39194268 -0.12767515 -0.49498242 0.06761018 0.008903333 0.10160135 0.051081777 0.01798127
0.014967538 -0.0070541366 0.048652843 0.014815873 -0.089707024 0.05737814 -0.024963362 0.055188768
-0.08193959 -0.19637026 -0.20404476 -0.0765283 0.045499433 0.11110986 -0.18630593 -0.011931686
0.20336215 -0.040471952 0.09625149 -0.008104729 0.031937774 0.08179195 0.028638374 0.042557392
-0.010059821 0.5022645 -0.9343915 0.09148002 -0.1374914 0.009668714 -0.3694995 1.3906122
-0.11537436 -0.23524593 -0.011617002 0.09598745 0.1838593 0.011835586 0.39098626 0.018272646
-0.25330058 -0.0018979355 -0.14093448 0.23483427 -0.48258734 -0.1252855 -0.5284593 -0.087599866
0.05382389 0.062185407 0.008442722 0.014164713 -0.057162832 -0.056802165 0.05077007 0.06679345
-0.10473931 0.02342881 0.06174269 0.008999605 -0.08083329 -0.13041686 -0.18918894 -0.014384175
0.0070929215 0.14626993 -0.150427 -0.022848142 0.18533245 -0.01738717 0.15303107 -0.074953705
0.08254124 0.0016745263 0.06734465 0.10505785 -0.13600011 1.6601938 -1.522578 -0.1791937
-0.0107466895 -0.071696624 -0.64347494 1.583609 -0.1301746 -0.35678327 0.025839727 -0.013765253
0.11423995 -0.030953228 0.2236044 -0.09990932 -0.35698798 0.04175286 -0.05167766 0.2654052
-0.51490986 -0.10124341 -0.47574124 -0.18847865 -0.025951732 -0.04377202 0.11303758 -0.0537123
-0.022761628 -0.020580577 0.04875092 -0.052234516 0.015230991 -0.021258576 -0.01946926 0.07657933
-0.14086087 -0.23384851 -0.39616346 -0.17539501 0.06235378 0.058111344 -0.15836264 -0.061409056
0.15456477 -0.03149775 0.17252892 -0.075547986 0.13556153 0.07513341 0.04492501 0.1154754
-0.590351 4.0113034 -3.7818687 -0.83678424 0.040806815 1.2568477 -0.6394606 1.564687
-0.13629878 -0.43104923 -0.21006268 -0.13879557 0.24712831 -0.15656789 0.4068365 -0.10868378
-0.3052068 0.23699263 -0.064811535 0.21779118 -0.5766393 -0.2592593 -0.36112037 -0.27003142
0.045137733 -0.2561176 0.0502439 -0.096184134 -0.22357891 -0.13958202 -0.065347016 0.13176872
0.0030763578 0.041554425 -0.14272913 0.05186454 -0.6008682 -0.29379722 -0.38999364 -0.22756922
0.123740666 0.18809442 -0.09087506 -0.08630638 0.2823748 -0.21864954 0.16981243 -0.08607383

bias f4 [128]
00000000: 38ae 183e 51dc 4e3d 578f c7bd f79a bdbd
00000010: 3cc7 22bc ee9c 60be c59f a43d 3e00 23be
00000020: 9ac7 37be ed8f dd3c 49dd b63c 39f8 3b3e
00000030: 0fe6 d2bc a571 383d 4656 fcbd 5851 00be
00000040: 82e0 b1bd b997 27be 4c47 a7bd 81cc 183c
00000050: ed5e 3e3d 3efd e6bd 06c2 17be fd20 d2bd
00000060: a18f a3bd ee41 783e 7cb5 05be 66f1 91bd
00000070: ebd5 57be eeb1 56be 3320 34be 59ea 803c
00000080: 45b9 14bd d1f2 5dbe 8885 09be 7b6d 99be
00000090: 8ddc 07be 9784 7abd cc47 e9bd a84f 993b
000000a0: b30e 14bd f692 483e 214e bcbd 652d 32be
000000b0: eea9 093d 7626 aebe 579a 34bd 8c5f aebe
000000c0: 3080 97bd 26ef 91be cf88 5f3d 18b7 70be
000000d0: c679 32bd ca1c 02be 3448 85bd 1b00 f53c
000000e0: b0c4 e4bd 1b5a 353e 697b 9dbd 0983 6d3c
000000f0: a966 2ebb 810e db3d 8686 21be 087e 833e
00000100: c375 15bd f2ef a1bd c7a3 1dbe 5b0c 17be
00000110: 279d 83bc 165f 4ebd f704 983d cbb5 723d
00000120: 671e 7ebe 331c 3cbe 0454 53be 890d 2ebe
00000130: 429b acbc d74d ae3d eeee 39be 541e c3bd
00000140: 4275 76bb db84 14be a178 d0bd 9b59 64be
00000150: f76a c9bd 04ca 4f3d ea51 963c bcb6 b3bd
00000160: b702 313d 8e25 9e3d db14 1b3e b0bc 143d
00000170: 8940 fabd a2aa a4bc f2f2 a6bd 6f40 eaba
00000180: 9a0a 543e 14ca 03be 1b82 4dbe ebd9 0ebe
00000190: 08de f2bd e492 b8bc ce08 3ebc 84e1 98bd
000001a0: be71 5cbd fff8 22bd a0c8 00bd f1a3 a0bc
000001b0: 4a45 e1bd 63fb 39be af8b 7c3d 2ae2 47be
000001c0: fe9f 043e d8df 06be a8fb 903d 8262 4b3b
000001d0: 8c14 2dbe 993c 31be b6ed 32be 7a53 7cbe
000001e0: 6f94 153c 7ea0 f13b cde4 98bd 3215 1abe
000001f0: 7b02 8ebd 6bbf a33d e093 dcbd fbab c93b
0.14910209 0.05050308 -0.09744137 -0.09258073 -0.0099351965 -0.21934864 0.08038286 -0.15918061
-0.17947236 0.027046168 0.022322314 0.18356408 -0.025744466 0.045030255 -0.12321143 -0.1253103
-0.086853996 -0.16366471 -0.08167896 0.009326101 0.046477247 -0.11278771 -0.14820108 -0.10260198
-0.079863794 0.242439 -0.13057512 -0.07126121 -0.21077697 -0.20966312 -0.17590408 0.015736746
-0.0363095 -0.21674658 -0.13429844 -0.2996634 -0.13267727 -0.061161604 -0.11390647 0.004678685
-0.03614683 0.19587311 -0.091945894 -0.17400129 0.033609323 -0.34013718 -0.044092502 -0.3405727
-0.07397497 -0.28502768 0.05457383 -0.23507345 -0.043573163 -0.12706295 -0.06507912 0.029907277
-0.11170328 0.17710154 -0.07689554 0.014496573 -0.0026611483 0.10696126 -0.15773973 0.25682092
-0.03648926 -0.07907094 -0.15394507 -0.14750807 -0.016066147 -0.05038365 0.07422822 0.059255403
-0.24816285 -0.18370132 -0.20637518 -0.16997351 -0.021070126 0.085109405 -0.1815755 -0.09527269
-0.0037606512 -0.14503805 -0.10179258 -0.22299807 -0.09834855 0.050729766 0.018349607 -0.08775088
0.04321548 0.07722007 0.15144674 0.03631276 -0.1221934 -0.020100895 -0.08151807 -0.0017871986
0.20707169 -0.12870055 -0.20069163 -0.13950317 -0.11858755 -0.02253098 -0.011598779 -0.07464889
-0.05381941 -0.039788242 -0.03144133 -0.019609423 -0.10999544 -0.18162303 0.06165665 -0.19519868
0.12951657 -0.13171327 0.070792496 0.0031034057 -0.1690237 -0.17308272 -0.17473492 -0.24641219
0.009129628 0.0073738685 -0.07465515 -0.15047148 -0.06934067 0.079954945 -0.107703924 0.006154535

weight f4 [128, 128]
00000000: a8b1 8bbe b226 043e fb06 d13d 849b b6bc
00000010: 02a3 ee3b d9d8 993d 775a bb3d ab42 25be
00000020: 30df b7bd b87c fdbc 0030 e73c d9a4 4cbe
00000030: b77b f53d 8293 263e ff41 0dbe 69e9 12bd
00000040: e44a ec3d d727 d53d 84a7 81bc 00a0 21be
00000050: 15bb c2bd cb18 963d e719 11bd e4b7 20be
00000060: e77b 1ebd 3202 f73c 7714 babb 1354 783d
00000070: ecd4 53bd 9beb 483e bde5 c93c c500 803d
00000080: 5c15 6cbd 6eba 13be d30e f2bd 8f9c 953d
00000090: 983c 0a3e c6f8 a8bd f2df fd3d 7247 ae3c
000000a0: 97b8 e2bc e153 dfbd 2066 613d ed2c 5d3e
000000b0: c8b9 3cbe 83b2 8f3d 3af0 643c 9b11 f9bd
000000c0: 9e50 71bc 2ad4 af3d bd25 8ebd 6b39 a83d
000000d0: 55ae 3e3d ac76 cfbd 1a40 b3bc 9677 aebc
000000e0: c464 993d 8352 4c3e 14e0 03bd bb2a 09be
000000f0: 18a5 fb3c 3be0 b93d 2895 4ebe 1cbd e23c
00000100: 905e 253e 4539 27be d19d b7bd 779c 8c3c
00000110: c94a 793e 27b0 6bbe 8496 a93c 1326 05bf
00000120: 81a4 373e a19f cc3d 95e3 17be 827e 37be
00000130: 9d2a 74be 483c 8ebd 0dd0 e5bc 23bf ebbc
00000140: 0f2e 2e3e 75a1 cd3d 9aa9 cebc 8c74 2b3d
00000150: c3df 803d 7224 5f3d 27d2 97bc ee8d 9ebd
00000160: 8847 1c3e 32d8 65bc 1b72 0a3e 0b58 5dbe
00000170: a653 12bb 00cc b03d 78da de3d c622 5abe
00000180: 4113 8f3b 4d9b 033e 13b6 a83d 8c38 043e
00000190: 9a0e 37be 884c 89bd 24a1 afbd 46f6 8e3c
000001a0: 6381 23bd 32bb 08be 6cf0 fc3c fd6f 493e
000001b0: 5d6a 8f3d a70d 263d 63f3 22be 21e8 583e
000001c0: 4673 b4bd 7bc5 b2bc c6bf adbd 0250 ff3c
000001d0: 64db 403d a5ff 6b3d 16f0 37be e030 f13c
000001e0: 0d2c cf3c cf7b 913d c119 05be 5398 bf3d
000001f0: 0dfc 243e 2033 eebd 8ad7 d63d 4740 c13d
00000200: 39e8 aebe 8e2c 2bbd 95d4 1cbe 1a18 723d
00000210: 8689 f03c 7654 93be 4eb2 2a3e 509b e33a
00000220: e0d8 30be a55b afbe 0ee4 30bd 6d48 97be
00000230: a651 f63d 5f4e 5fbd c645 e9bd 3422 58be
00000240: 99a4 cc3e 7b0d c3bd 97aa 02be 3f3a 163e
00000250: 2705 1cbd 6e8d 523e a2ed 2cbd e767 6fbe
00000260: 1dad 043d 3e53 15bf d236 3bbe c47e 89bd
00000270: 9083 6d3d 2103 57be e8b6 1cbe 083d 653d
00000280: 8971 8d3d 83cc 863d f421 c13d 28ba 313e
00000290: 65d7 6a3d 56b6 103e 6ea3 4a3e 50bb 03bd
000002a0: 15e7 5cbe f0fd eabe 0cf0 8cbd 1d15 223e
000002b0: ab1f 11be d7ec 513e 3b73 913d 8497 94be
000002c0: 4bf3 74bd 0d9d 1b3e 97e9 943d 6a2c 983b
000002d0: 1c1b 59bd 2a90 8ebb 8d1c 5f3c 7ad1 a83d
000002e0: b408 093e d909 85be 6a49 9ebe c8c4 383d
000002f0: d30c f0bc 4ebd 86be 324c a3bd c0b4 b63e
00000300: 53da 943d 6ed2 1abd ef09 1cbd 0937 d9bd
00000310: 2bb5 20be 4fe6 7abe fe99 a8be 8e76 dfbe
00000320: c611 1cbe 8380 213d 015d 4c3d 71f9 9bbd
00000330: 5f08 66be 38b7 26be 75bc eabd b38b d1bc
00000340: eb38 80bc bf69 693e 0b0c ae3d 113d 46be
00000350: 0842 a63d 3d33 183e d94f 7d3d 680e 133d
00000360: c70a 4fbe c926 f13e 562e e7bd ef90 5bbe
00000370: 3155 53bd b8c4 3a3e 01f1 7b3e ecd0 55be
00000380: ab1c 853e 2bbf 7dbe c298 cfbe 1d41 12bc
00000390: 6cbd 42be d17c 4b3c 4062 1a3d 7c8d 8bbe
000003a0: b920 d03d ab1d 20be de36 ddbe 3b6e df3c
000003b0: c8a0 d9be 84a1 ebbd 6458 193d 76cd f7bd
000003c0: 065b 7b3e 6e42 823e 16ee d83d 6527 59bc
000003d0: 2e7d 54be 5684 773d 8371 8a3e 72d4 3bbe
000003e0: 723a dfba 8559 c53d 3996 413c 1d41 75be
000003f0: 9e1f 223d 1cbf a93d 3a33 09be ee99 0f3e
-0.27283978 0.12905386 0.102064095 -0.022290953 0.0072826156 0.075120635 0.09148114 -0.16138713
-0.089781165 -0.03094326 0.02822113 -0.1998476 0.11986487 0.16267207 -0.13794707 -0.03586713
0.11537722 0.104079895 -0.015826948 -0.15783691 -0.09508339 0.07328948 -0.035425093 -0.15695149
-0.03869238 0.030152414 -0.005678709 0.060627054 -0.05171673 0.19621126 0.02464568 0.06250147
-0.057637557 -0.14426586 -0.11819234 0.07305252 0.13499677 -0.08250575 0.1239623 0.021274302
-0.02767591 -0.109046705 0.055029035 0.21599169 -0.18430245 0.0701647 0.01397329 -0.12161561
-0.014728693 0.08585389 -0.06940792 0.082140766 0.046552975 -0.10130057 -0.021881152 -0.021297257
0.07489923 0.1995335 -0.03219612 -0.13395207 0.030718371 0.09075972 -0.20174086 0.027678065
0.16149354 -0.1633044 -0.08965648 0.017164452 0.24344935 -0.23016416 0.020701654 -0.5201122
0.17933847 0.09991384 -0.1483291 -0.17919353 -0.2384438 -0.069450915 -0.028053308 -0.028777665
0.17009757 0.10040561 -0.025227357 0.041859195 0.06292679 0.054478116 -0.018532826 -0.07741915
0.15261662 -0.014028596 0.1352009 -0.21615617 -0.002232769 0.0863266 0.10881513 -0.21302328
0.004366309 0.12852211 0.08237853 0.12912196 -0.17876664 -0.0670405 -0.08575657 0.017451417
-0.039918315 -0.1335266 0.03087636 0.19671626 0.07002709 0.040540364 -0.15913157 0.211823
-0.08811049 -0.021822682 -0.084838435 0.03116608 0.047084227 0.05761685 -0.1796268 0.02944225
0.02528956 0.07103693 -0.12998106 0.093552254 0.16111775 -0.11630845 0.104903296 0.09436088
-0.34161547 -0.041790538 -0.15315469 0.059105016 0.029362451 -0.28775376 0.1666958 0.0017365012
-0.17270231 -0.34249607 -0.04318624 -0.29547444 0.12027292 -0.0545181 -0.11390261 -0.21106797
0.39969328 -0.095240556 -0.12760387 0.14670657 -0.03809085 0.20561764 -0.04221881 -0.2337948
0.032391656 -0.5833014 -0.18282631 -0.06713632 0.057986796 -0.20997287 -0.15304148 0.055966407
0.06906421 0.06581976 0.09430304 0.17356169 0.057334322 0.14132056 0.19788906 -0.032161057
-0.21572526 -0.45896864 -0.06881723 0.15828367 -0.14172237 0.20500503 0.071020566 -0.29021847
-0.059802335 0.15196629 0.07271116 0.0046439664 -0.05300437 -0.004350682 0.013617647 0.082430795
0.13382226 -0.25984076 -0.30915385 0.04510954 -0.02930299 -0.26316303 -0.079735175 0.35684776
0.072682045 -0.037798338 -0.03809541 -0.106062 -0.1569411 -0.24501918 -0.32929987 -0.43645138
-0.15241155 0.0394292 0.049893383 -0.076159365 -0.22464131 -0.1628083 -0.114617266 -0.02557931
-0.01565214 0.22794245 0.08498391 -0.19359232 0.08118063 0.14863296 0.061843727 0.03590241
-0.20218955 0.47099903 -0.11288135 -0.21442007 -0.051594917 0.18239105 0.24603654 -0.20880479
0.25998434 -0.24779956 -0.40546232 -0.008926657 -0.19017571 0.012419895 0.037691355 -0.27256382
0.10162491 -0.15636317 -0.43205923 0.027274242 -0.4250548 -0.11505416 0.03743781 -0.120997354
0.24546441 0.25441307 0.10592286 -0.013254021 -0.20750877 0.06042894 0.27039728 -0.1834276
-0.0017030968 0.09636215 0.011815601 -0.2395062 0.039580934 0.08288404 -0.13398448 0.14023563

bias f4 [128]
00000000: 95f7 f1bd 8681 cbbd 9c32 153e 6568 2dbd
00000010: a815 8dbe 9f02 88be 159f 35be 57b9 38bf
00000020: d173 f0be c4ce 123c e620 e8bd a151 20bd
00000030: 4e26 81bd affe b3bd 4b3e 3abe d2dd cd3c
00000040: 5379 7fbe ce1c 05be 8f40 4ebe d843 97be
00000050: cb27 59be f172 5abe 0817 9b3c 79ec 86be
00000060: 320e 08bd 8fe2 dcbd 792f 80be 0e13 ac3e
00000070: 36b5 38be 5218 5b3e ed5b 5fbe 9743 25bf
00000080: 174d 25be 342e 87be 5920 46bf a757 49be
00000090: d610 dfbe 0820 60be 155f fbbd 691c fc3d
000000a0: fa22 81be 7da0 6bbc 067f 91be b1da f6bd
000000b0: dec6 86be 458a 88be a5ab 993d 8772 51be
000000c0: bfcb 70be daec 003d d2c6 a9be 1361 00be
000000d0: 95e9 b83c 149c 4abe 9dfa 51be 30e9 cebd
000000e0: c33e 573d 865d 14be 7189 5b3d c114 d4bd
000000f0: 7bab 203e f052 01be 3bc1 1dbe bddf 4dbd
00000100: 39c4 283d fb15 eebd 1f57 16bf 92d0 78bb
00000110: 4f7d bdbe 5502 a2be 69a9 0dbe bc84 e6be
00000120: 35c8 4dbe 8b33 73bd 3bc1 a6be 4314 e5bd
00000130: 4f0e 63bd 849a 82be 2bb2 903c 1d0d 8cbe
00000140: fde8 96be aa89 ddbe 9e52 0c3c 5fbe bfbe
00000150: 804a 76be 3e31 64be 0221 c0be 23a4 c8be
00000160: 231b 80bc 79e3 9abe d60a 39be 75b2 78be
00000170: 6543 163e c189 8bbd 1bdd 06be 54fb 2ebe
00000180: e0f3 2fbe 0c84 a1be 3b82 ae3e 3cd9 03bd
00000190: a6d8 643e 6298 afbe 349c 80be 12a2 02be
000001a0: c2e8 65bd 0df4 b3be c51f 6abe 4917 8dbd
000001b0: 3fe0 e8bd fafe 63be d372 8cbe 1529 0dbf
000001c0: 5973 88bd 5bbc 53bd a00a d8bd 2ef8 f9bd
000001d0: 2bf4 95be 6ad9 92be 4386 00be 733a 1cbf
000001e0: 63ca 19bf e9ff 80bd 6eb0 91be d56e 10bf
000001f0: 3712 82be d0a4 6cbe 234a 8abe 2863 e6bd
-0.11814801 -0.09936814 0.14570087 -0.042335887 -0.27555585 -0.265645 -0.17736466 -0.72157806
-0.4696336 0.00896043 -0.113344 -0.039140347 -0.06306134 -0.087888114 -0.18187825 0.025130186
-0.24948625 -0.1299927 -0.20141815 -0.29543948 -0.21206586 -0.21332909 0.01893188 -0.2635229
-0.033216663 -0.107854 -0.2503622 0.33608288 -0.18037876 0.21395996 -0.2181241 -0.6455626
-0.16142689 -0.26402438 -0.7739311 -0.19662343 -0.43567532 -0.21887219 -0.12273995 0.12310106
-0.25221997 -0.014381525 -0.28417224 -0.12053431 -0.263236 -0.2666799 0.07503442 -0.20453845
-0.23515223 0.03147588 -0.331595 -0.12537031 0.022572318 -0.19786102 -0.20505758 -0.10103071
0.05255009 -0.14488801 0.05359787 -0.10355521 0.15690415 -0.12629294 -0.15405743 -0.0502622
0.041202758 -0.11625286 -0.58726686 -0.0037966114 -0.37009665 -0.31642404 -0.13834156 -0.45023143
-0.20095904 -0.059375327 -0.32569298 -0.11185505 -0.055433568 -0.2550851 0.017663082 -0.27353755
-0.2947463 -0.43269092 0.008564619 -0.3744993 -0.24051857 -0.2228441 -0.37525183 -0.39187726
-0.01563794 -0.30251673 -0.1807054 -0.24286826 0.14674146 -0.06813384 -0.13170283 -0.17088062
-0.17182875 -0.31546056 0.34083733 -0.032189593 0.2234827 -0.34295946 -0.25119174 -0.12757137
-0.05613018 -0.35147133 -0.22863682 -0.06889207 -0.113708965 -0.22265235 -0.27431354 -0.5514081
-0.06662626 -0.0516933 -0.105489016 -0.1220554 -0.29287848 -0.286815 -0.12551217 -0.61026686
-0.6007444 -0.06298811 -0.28454918 -0.56419116 -0.25404522 -0.23109746 -0.27009687 -0.11249381

weight f4 [128, 128]
00000000: ab82 84bc d73d 033e 464d 0f3d c94b 853c
00000010: f0a9 25be 5209 e63b 92dd 113e fef7 7d3e
00000020: 25b6 e6bb fea5 4dbe 1752 9bbe 0db1 443e
00000030: e173 5d3e c640 80be b17b cfbd 8293 84be
00000040: b999 263e a60d fdbd e8e8 d8bc ccd3 4abe
00000050: e0db 9cbb f7b0 f13d 833e 2b3c 7acb 8c3d
00000060: 894a 3d3d 5395 0dbe 9ccc 203d c59f 2dbd
00000070: 6cb2 44bd f5d5 83be d670 e43d 5e8b 6d3e
00000080: d950 3f3e b727 61bd b1d4 f8bb fd15 7b3d
00000090: 3828 b23d 2e61 f53c 28aa 65bc d100 20be
000000a0: 1bdd a63d 62de 1cbd b2d6 11bd 1873 37be
000000b0: ec42 103e a8fb dcbd 5f10 9bbe 8073 8fbb
000000c0: 516e fabc 5122 2d3e a8d2 66bd 0003 be3b
000000d0: 3d12 6d3d 4188 d03d 397c 20bd 7cf8 3cbe
000000e0: f9cb 2b3e 12a0 c1bb 40c9 c5bc b1b7 303e
000000f0: ffb0 5abe 3335 753e 4373 c23c 647d 77bd
00000100: 2e1e 013d 6e4b 9bbc f5f0 b73d 9d17 d8bd
00000110: 7178 08be 7776 24bc 4bc3 bd3d 6715 a93c
00000120: 3339 413e ca85 aebd 1b7e 0dbe b078 7a3e
00000130: d7df 19bc 952c d43c e55e 70be b00c 343e
00000140: 1851 e03d 3064 ed3b de0e 1c3d 8366 d5bd
00000150: 074f 95bd 017c 05be 0d93 4e3e 0017 9fbb
00000160: d57a 5dbe c881 18be 3f7a c4bc c338 6b3e
00000170: 585d 56be 0bc0 18be a5c4 debd 80d1 a8bd
00000180: 991d c2bd 43f0 52be ba4b 89be ba18 e63d
00000190: 1476 663d 778e e3bd d828 0cbd f0e0 fe3d
000001a0: 3724 1cbd 2259 92be 2403 1b3d 234d 7e3c
000001b0: f1c0 413d 3471 9ebe 313b cdbd 8c8e ec3d
000001c0: 9896 2fbd c555 42be cd4d 25be 22d6 ab3d
000001d0: 5caa 913d 347d 90bc 0025 573d 43dd babd
000001e0: d187 103e 5809 edbd b9de 043e 41be b73d
000001f0: 16fa d03d 39cc 023d 8a04 b93b b8a5 8ebd
00000200: 443a 6fbd 30d2 e2bd bc38 483d 1d67 9a39
00000210: 4627 1d3d e34c 7fbe beab 43bc 6423 b93e
00000220: 9b61 3e3e da68 efbd 0e35 133e dd7d 4dbf
00000230: d106 2e3e 34be 103e 700e 153e d010 993c
00000240: 7100 143c 76ae aebc 7ecc e13e a700 c2bc
00000250: 3f4e 073e 5312 673d e252 243e fa62 f73c
00000260: 0375 b3bd 7505 443d 0f34 e03d 7240 debd
00000270: e34e 843d 208e f3bd ce43 f5bb 20ff 973e
00000280: 6a07 88bd 6b04 603e e8b8 bc3e b1aa aebd
00000290: 7ae2 61be 2242 ff3d 181e f3bc f88f 713d
000002a0: b877 c43c f987 d43d 93c3 59be 23cf 3f3e
000002b0: 2fc1 f53d a4e4 8b3b 0377 9b3e 8a8d 893d
000002c0: 9df6 b7bd 122d 83bb 04db 5fbc 7cd6 11be
000002d0: 925b 9fbe cf5c 8ebd cb27 15bd 4d77 92bd
000002e0: 4b6f efbd 59fb 7b3d fd33 b8bd 99dd 12bd
000002f0: f349 eb3d fcd9 633d 78d7 333d 124e 963d
00000300: 8896 b7bd 8d7c 9a3d fe35 fabe c865 86be
00000310: 83bb 1c3d 90f5 023e 3898 953d caed 013e
00000320: c11a 023e 3263 f23d 3db0 8bbd ff31 6d3e
00000330: 0adc 28be de6b 683e 0f25 abbe cb0f 9cbe
00000340: 78b1 733d 53c2 9d3d d393 483e f1e0 43be
00000350: c1d4 3ebe 8d51 243e dea8 a63c 3ef2 413d
00000360: 7a30 6c3e 5b5a 803e 99d3 4a3b 0376 33bd
00000370: 12e4 93be 97e2 003e 4092 2abe fa9c c13d
00000380: 6cce eb3d 9361 943e 0fe6 fdbb f1c8 553e
00000390: acc9 74be 41bb 29bc eee9 763e 030a 893d
000003a0: 02eb e83d 8699 e0bd b422 babd 989b 0dbc
000003b0: 62d4 c2bd 7f4d 3ebe b1dd c23d 8054 453e
000003c0: d6ec 463c ee9f 10be b544 0d3e 45d7 1cbd
000003d0: 399d e43c 0c85 d73d fff8 18be 4ddd 1fbd
000003e0: e7aa bc3d 6a09 20bd ae5a 3a3e 420a 593e
000003f0: 7ed2 353e 2df4 023e d77f 5e3e 5498 3fbd
-0.016175589 0.12816559 0.034985803 0.016271489 -0.16178107 0.007020154 0.14244679 0.24801633
-0.0070407563 -0.20082852 -0.30336067 0.19208165 0.21626236 -0.25049418 -0.10131014 -0.2589379
0.16269578 -0.12356119 -0.026478246 -0.19807357 -0.0047869533 0.118013315 0.010451916 0.068747476
0.04621366 -0.13826494 0.03925763 -0.042388696 -0.04802172 -0.25749174 0.11154334 0.23197696
0.18683185 -0.054969516 -0.007593714 0.061300267 0.08699077 0.029953565 -0.014017619 -0.15625311
0.08147641 -0.03829802 -0.03560514 -0.17914999 0.14088029 -0.10790187 -0.30285928 -0.0043777823
-0.030570181 0.16907622 -0.05635324 0.0057986975 0.05787872 0.10182238 -0.039180968 -0.18454164
0.16777028 -0.0059089744 -0.024143815 0.17257573 -0.21356581 0.23946075 0.023736602 -0.060422316
0.031522922 -0.018956866 0.08981506 -0.10551379 -0.13327195 -0.01003801 0.09265765 0.020640088
0.18869476 -0.08521612 -0.13817637 0.24460101 -0.0093917465 0.025900165 -0.234737 0.17582965
0.109529674 0.0072446093 0.038100116 -0.10419943 -0.07290464 -0.13035585 0.20173283 -0.0048550367
-0.21628888 -0.14893258 -0.023984073 0.22970872 -0.20934045 -0.14917009 -0.10877351 -0.08243084
-0.094783016 -0.20599465 -0.26815587 0.11235185 0.05626495 -0.111111574 -0.03421864 0.12445247
-0.038120475 -0.28583628 0.037844792 0.0155213205 0.047303144 -0.30945742 -0.100210555 0.11550626
-0.042868227 -0.18978031 -0.1614296 0.08390452 0.071125716 -0.017637827 0.05252552 -0.091242336
0.1411431 -0.11574048 0.12975587 0.08971835 0.1020395 0.031933043 0.005646293 -0.06965202
-0.058405176 -0.11075246 0.04888223 0.00029449994 0.038367532 -0.24931674 -0.011942802 0.36159813
0.18591921 -0.11689921 0.14375708 -0.8027018 0.16994788 0.14135057 0.14556289 0.018684775
0.009033308 -0.021323424 0.44101328 -0.023681952 0.13213442 0.05641396 0.16047242 0.030198563
-0.087625526 0.047856767 0.109474294 -0.10852136 0.06460359 -0.118923426 -0.0074848896 0.29686832
-0.06642039 0.21876685 0.36859822 -0.085286506 -0.2205905 0.12463786 -0.029677436 0.05897519
0.023982868 0.10377497 -0.21266012 0.1873136 0.119997375 0.0042691994 0.30364236 0.067164496
-0.089825846 -0.0040031755 -0.013663057 -0.14241976 -0.3112455 -0.069512956 -0.036414903 -0.07151661
-0.11691149 0.061519 -0.08994291 -0.035855863 0.11488714 0.055627808 0.04390666 0.073391095
-0.089642584 0.075432874 -0.48869318 -0.26249528 0.038264763 0.12788987 0.07304424 0.12688366
0.12705518 0.11835326 -0.06820724 0.23163603 -0.16490188 0.22697398 -0.3342671 -0.304808
0.05949542 0.0770308 0.1958764 -0.19128777 -0.18635847 0.16046734 0.020344194 0.04735016
0.23065367 0.25068936 0.0030948876 -0.043813717 -0.2888494 0.12586437 -0.16657352 0.09453769
0.11513981 0.28980693 -0.0077483724 0.20877434 -0.23905057 -0.010359586 0.24112675 0.06691363
0.11372949 -0.10966782 -0.0908865 -0.0086430535 -0.09513165 -0.1858425 0.095149405 0.19270515
0.012141427 -0.14123508 0.13795741 -0.038291235 0.027907 0.105234236 -0.14938734 -0.03902941
0.092122845 -0.039071478 0.18198654 0.2119532 0.17756078 0.12788458 0.21728455 -0.04677613

bias f4 [128]
00000000: bbab 45be 94e1 b7be 5baf 19be 9dd8 b6bd
00000010: 0f10 e4ba 55b6 0bbe 49a0 8dbe e91f b9ba
00000020: ea6f 83be 592b c0be bba8 183c b9f8 5fbe
00000030: 9566 f8bb 1a0e b4be 7dd0 b8bd f551 aebe
00000040: 7049 7ebe 9106 0cbe d493 44be a890 9fbd
00000050: 3ab9 babc 9219 f6bd f5c0 27be 5f38 85be
00000060: b63c 00be 0262 18bc 44ac 37be f1b2 39be
00000070: b1cd 80bd d966 40be 4af9 54be 4e9f d9be
00000080: 0433 1abe b6c1 5cbd 2b6e cabd 94c8 06be
00000090: 8945 07be 29ba 11be 8b32 12be 9a2e a4bd
000000a0: d155 17be b18c febd cf41 dbbd 6c37 1dbd
000000b0: 665b 103d cdea d4bd 83a4 59be 75f9 17be
000000c0: c201 34be b0d8 59be a266 bbbd 6b2a acbd
000000d0: 32d3 64be df01 35be c8e9 24bd 5f5b afbe
000000e0: 904c f6bd f788 d4be 7009 99ba 0818 98be
000000f0: da8f 10be 072b 9dbe 9f3e afbd 0fdf 75be
00000100: 8aa5 3ebe 4166 fabd 09c0 2fbe 69f7 45be
00000110: f71d 6ebe cf7e fabd d6e6 f6bd abad 5ebe
00000120: 91df 43be 0837 873c bfaa 6fbe 4935 31be
00000130: 919c 2ebe 8805 87bc 31a2 a6bd b327 a1be
00000140: 0a2a b7be c523 f8bd 4214 16bc 39c2 87be
00000150: 8757 d9bd 2562 c13b 4a29 cabd 1ae1 d4bd
00000160: 6fa8 0abe 3405 7bbe 6ad0 76be 92ff 36be
00000170: fdf3 97be 7340 81be a4f6 40be 1db4 93bc
00000180: 458c bbbe 0321 3abe fc8b f4bd 940d 2a3b
00000190: 11ea 0a3d 8e64 1abe 6c89 0bbe d2b8 d6bb
000001a0: 5da8 ec3b 80cc 13be f516 38be 9e9d 28bb
000001b0: 52dd 7ebd daf1 bebe bb1d c1bd 3bd0 14be
000001c0: 775a fc3c 3119 63be 7e72 7ebe dad1 20be
000001d0: 6022 44be dc0e 5ebe 81c4 02bd a5ff ffbd
000001e0: 63c1 fabd ca8e 32be af3a 52be 2bbc b2bb
000001f0: cfd6 0dbe 3e1b 75be efc7 6bbe 7429 81be
-0.19303791 -0.3591429 -0.15008299 -0.089280345 -0.0017399805 -0.13643773 -0.2766135 -0.001412389
-0.2567132 -0.37533072 0.009317572 -0.21872224 -0.007580588 -0.3516701 -0.09024141 -0.34046903
-0.24832702 -0.1367438 -0.19197017 -0.07791263 -0.022793401 -0.12016596 -0.16382201 -0.2601957
-0.1252316 -0.009300711 -0.17936808 -0.18134667 -0.062892325 -0.18789233 -0.20798221 -0.42504352
-0.15058523 -0.053895675 -0.09884294 -0.13162452 -0.1321012 -0.1423117 -0.14277093 -0.08016701
-0.1477883 -0.124291785 -0.10705911 -0.038382933 0.035243414 -0.10396347 -0.21254162 -0.14841254
-0.17578796 -0.21274066 -0.09150435 -0.08406528 -0.2234619 -0.17676495 -0.040262014 -0.34249398
-0.12026322 -0.41510746 -0.0011675786 -0.29705834 -0.14117375 -0.3069689 -0.08556866 -0.24010871
-0.18617836 -0.12226535 -0.171631 -0.1933266 -0.23253618 -0.12231218 -0.12055747 -0.21745937
-0.19128253 0.016505733 -0.23404978 -0.17305483 -0.17051913 -0.01648213 -0.08136404 -0.314756
-0.3577426 -0.121161975 -0.009160103 -0.26515368 -0.10612398 0.0059015923 -0.098711565 -0.10394497
-0.13540815 -0.24513704 -0.24102941 -0.1787093 -0.29678336 -0.25244483 -0.18844086 -0.01803022
-0.36630455 -0.18176655 -0.119407624 0.0025948035 0.03391463 -0.15077421 -0.13626641 -0.006552794
0.007222219 -0.1443348 -0.17977507 -0.0025728713 -0.062222786 -0.37293893 -0.09429499 -0.14532559
0.030804856 -0.22177579 -0.24848363 -0.15705052 -0.19153738 -0.21685356 -0.031925682 -0.12499932
-0.12243917 -0.17437282 -0.20530199 -0.0054545603 -0.13851474 -0.23936173 -0.23025487 -0.2522694

weight f4 [12, 128]
00000000: 3d45 503c f578 733c 2995 9fbc fd24 38bc
00000010: b0b0 153b a8a6 903b 3f2e 6fbc c700 8bbb
00000020: 3ee0 07bd be9b a03b fdd6 cd3a cf80 65bc
00000030: 06f3 cb3a 2b4f 173d 246c 1bbc cc9e 5f3b
00000040: bea0 523b b085 a93b 6921 e93a eac8 8bbb
00000050: 5d46 8a3b a0ca b8bb dda3 79bc 4118 dfbc
00000060: ce95 583c f8be 44bb a7fc 943c 615f 973c
00000070: b922 0dbd 2316 233d 629b 513c c3ca a33b
00000080: 7a39 1e3d 0a6c 11bc c6cf 76bc 4dd5 e53c
00000090: 7a77 813c c1e7 0dbd bf90 0a3b a99f bcbb
000000a0: 45d6 153a a279 52bb 74ed 60bc 5eab 3dba
000000b0: 9332 6c3b e471 9abc 28e1 43bc 9618 36bb
000000c0: cf02 103a f80a ee3a 293d c5bb 48f8 70bc
000000d0: 2f5d e3bc 0288 29bc 08a7 96bb 1956 093d
000000e0: e572 063d 6bd7 cdbb 357b 6d3b e3b5 203d
000000f0: 6108 39bc 53ec 6cbb 32af 593b bc5d 94bc
00000100: 3c49 94bc d7a5 173c 6878 d43d 159a 39bc
00000110: 647b d839 df3a 2f3d eeda 1539 55a3 09bc
00000120: 3ce7 c2bb c1fa 9aba f6a5 e63c 36c7 fc3b
00000130: 99e3 ef3a 8b15 963b d46f 2cbb a460 8dbc
00000140: 23b5 133c 9cfa 853c 62b8 4bbb d82c 933c
00000150: 5028 f6bc 4d9c ab3b cb42 fdba 938a af3c
00000160: c85d f0bb effc 3f3a 8681 3ebd 3090 aabb
00000170: c60d d1bc 04fd d0bb f562 913c d404 b53b
00000180: 41bd 47bd 4ccf e03b cc17 413d 5b12 9dba
00000190: 62bd b73b 5f1d efbb 91de e33b e1ec cd39
000001a0: d9e1 ef3b 9ac1 03bc 84b7 36bc 03e7 3f3a
000001b0: 47bd 0539 da80 823c fba2 41b9 e0a8 19bc
000001c0: f31e 22ba cd03 74ba 6644 453c da2a c4bc
000001d0: ade6 063d 7f9a a43b f20b 8bbb 19b5 3339
000001e0: 3696 63bc 7493 a83c 5fb2 d93c 1af5 40bb
000001f0: 6db4 24bd 7240 adbb e064 2bbb fa54 393c
00000200: dcf5 443c 1107 65bb 7250 1f3c a644 41bd
00000210: c4e4 56ba 2f69 ed3a 55fd 90bc fd95 3dbb
00000220: 3db2 37bc 7f2d 19bc bf7c 6bbb 47bf e53c
00000230: ea46 873b ec23 08bd eaeb 9e3c 4dc7 73bc
00000240: e93b 63ba 8f01 2f3c b6c3 04ba 6bbc f238
00000250: 103b 443b 778e b73b b1f0 02bc 37c7 db3b
00000260: 69e7 6a3c b9be 823b 1cfb cf3b 2fe4 93bc
00000270: a7af c93b bb2e 453c 6e75 06bd 3ecc d73b
00000280: b4cf e4bc 40d4 393a fc9c f43c c354 1dbd
00000290: 6435 0ebc 96c5 dbbb 2af1 66bb 9a41 0d3d
000002a0: db03 c73c b630 283d 958f 55bb be79 7539
000002b0: a09f 943b e1a5 1b3c 723b 54bc 6612 da3b
000002c0: b52f f8ba 91ce 063c 6d70 c039 84b4 adbc
000002d0: 5024 5f3c 35f6 ea3b e057 613b e38a 17bd
000002e0: 4a5a 30bd eea4 aebb b1ce 31bb dfc0 d03c
000002f0: 74c8 9bbb d764 8d3c c72a 5c3c 916c e6bc
00000300: d401 debb 4104 83bc fbfd a7bc 61a7 21bd
00000310: de20 3e3d a426 07bd c330 ab3a d74c edba
00000320: 945a 91bc 7ebb 1a3b b76a 903c 1aae 7c3c
00000330: 5218 053c 08d2 25bb 7cc5 81bb a023 833b
00000340: c574 aabb bce2 e83b 9f48 dd39 be90 693c
00000350: e4e3 753c a196 273a 2c78 0e3b e36d 763c
00000360: 38cd 85bc fc90 63bb ce64 b538 17cf 3f3c
00000370: e981 20bd cdce e13c 9133 97bc cd34 7a3b
00000380: d593 82bc cd9c 8e3c 85af 373c c679 2dbb
00000390: 60b4 0b3a b598 2a3c dc2d 0d3d ea9c 013c
000003a0: f880 febb e501 f8ba 1e32 aa3b 1aeb 99bb
000003b0: 3036 a2bb b524 493d e9fe 913b 69f8 9d3c
000003c0: 369d 453a 59bf b93b ce19 a93b f9b7 afb9
000003d0: a8bf 50bc 7753 dbbc 6017 9b3a fd0e 75bb
000003e0: a96b 55bc 1f98 d4bd c7e5 a4bb fb45 25ba
000003f0: 9577 333b f927 47bc 648d 333b 9964 0a3d
0.01271182 0.014860381 -0.019480305 -0.011239287 0.002284091 0.004414398 -0.014598428 -0.004242036
-0.03317284 0.0049013784 0.001570433 -0.014007761 0.0015560098 0.036940735 -0.009486232 0.003412175
0.0032139267 0.0051734075 0.0017786446 -0.004265894 0.0042198137 -0.005639389 -0.015236822 -0.027233245
0.01321931 -0.0030021053 0.01818688 0.018478097 -0.034456942 0.039816033 0.012793394 0.0049985363
0.038629033 -0.008875856 -0.0150641855 0.028055811 0.015804041 -0.034644846 0.0021143404 -0.0057563377
0.00057158276 -0.0032115956 -0.013728488 -0.00072353135 0.0036040887 -0.018853135 -0.011955537 -0.002778565
0.00054935826 0.0018161228 -0.0060192537 -0.014707632 -0.027754394 -0.010347368 -0.0045975484 0.033529375
0.032824416 -0.0062817833 0.0036236767 0.03923596 -0.011293502 -0.0036151602 0.0033215997 -0.018111102
-0.018101327 0.009255848 0.10374528 -0.01132824 0.00041290664 0.042780753 0.00014291305 -0.008400758
-0.0059479754 -0.0011823998 0.028155308 0.0077141775 0.0018302082 0.004580205 -0.0026311772 -0.017257996
0.009015354 0.016354851 -0.0031085243 0.01796572 -0.03004852 0.0052371384 -0.0019322274 0.021428382
-0.0073353983 0.0007323762 -0.046510242 -0.005205177 -0.025519263 -0.006377818 0.017747382 0.005524257
-0.04876447 0.006860649 0.047141835 -0.001198362 0.005607293 -0.0072972025 0.006954022 0.00039277136
0.0073206243 -0.008041764 -0.011152152 0.0007320495 0.0001275438 0.015930582 -0.00018466629 -0.009378642
-0.00061844214 -0.00093084277 0.012040233 -0.023946214 0.032934833 0.0050233 -0.0042433674 0.00017138234
-0.013890794 0.020578124 0.026574312 -0.0029442967 -0.04021113 -0.0052872235 -0.0026152655 0.011311764
0.012021508 -0.003494684 0.0097237695 -0.04718461 -0.0008197541 0.0018113012 -0.017698923 -0.0028928511
-0.011211929 -0.009349226 -0.0035932509 0.02804531 0.0041283267 -0.033237383 0.019399602 -0.01487906
-0.000866829 0.010681524 -0.00050645636 0.00011574555 0.002994243 0.0056017 -0.007991956 0.006707098
0.014337399 0.003990021 0.0063470732 -0.018053142 0.0061549726 0.012035067 -0.032826833 0.006585627
-0.027931072 0.00070888177 0.029860012 -0.038410913 -0.0086797215 -0.0067069037 -0.003523896 0.03448639
0.02429383 0.04106208 -0.0032586802 0.00023410373 0.0045356303 0.009499998 -0.012953626 0.0066550253
-0.0018935116 0.00822796 0.00036704857 -0.02120424 0.013619497 0.0071704634 0.0034384653 -0.036997687
-0.043054856 -0.0053297197 -0.0027131254 0.025482593 -0.0047541205 0.017259998 0.013437933 -0.02812794
-0.0067751203 -0.01599324 -0.02050685 -0.039466266 0.046418063 -0.032995835 0.0013060797 -0.0018104565
-0.017743386 0.002361029 0.01762901 0.015422368 0.008123474 -0.002530219 -0.0039603096 0.0040020496
-0.0052019083 0.007107107 0.00042206512 0.014255701 0.015007947 0.000639299 0.0021739108 0.0150408475
-0.016333207 -0.0034723869 8.649529e-05 0.011707089 -0.039186392 0.02756443 -0.018457206 0.0038178444
-0.015939632 0.017408753 0.011211281 -0.0026470288 0.0005329307 0.010412385 0.034467563 0.007910946
-0.007766839 -0.0018921463 0.0051939627 -0.0046972157 -0.0049503073 0.049107272 0.0044554365 0.01928349
0.000753838 0.0056685624 0.005160547 -0.0003351567 -0.012741007 -0.026773198 0.0011832528 -0.0037392967
-0.013026156 -0.10380577 -0.0050322744 -0.00063046784 0.002738451 -0.012155526 0.0027397508 0.033787344

bias f4 [12]
00000000: 554f 07be 351f 073e f362 a6bd 6bd0 a63d
00000010: fd11 5cbd b777 56bd f0f1 ea3d 0313 eb3d
00000020: f1ea 3f3e 9077 3e3e 08f9 613e 3c60 613e
-0.13213857 0.13195498 -0.08124342 0.08145221 -0.053728092 -0.052360263 0.11471927 0.114782356
0.18741967 0.18600297 0.22067654 0.22009367
