tested_policies/go2/go2_standard/exported/policy.onnx (onnx, 273175 bytes, 8 tensors)

actor.0.weight f4 [128, 260]
000000 3c 5f b9 3e 3a ce 78 bd 61 63 82 3f eb 35 a4 3e
       0.3620547 -0.060743548 1.0186578 0.32072386
000010 01 a9 0d 3e 0e b1 da bd b6 e8 c3 3e 36 52 6e bf
       0.13834001 -0.10678302 0.38263482 -0.93094194
000020 37 0b a1 bd 66 07 cd 3e 84 41 19 3f 93 f7 44 be
       -0.07863467 0.40044707 0.59865594 -0.19235067
000030 4d ef 62 3c 39 51 ff 3e f0 00 92 be 18 ec 49 bd
       0.013850999 0.49866655 -0.2851634 -0.049297422
000040 5b 36 45 3d cc 00 82 3e 8a fb 2a be 11 57 4f 3e
       0.04814754 0.25391233 -0.16697517 0.20248057
000050 68 18 c5 3c a8 f0 51 bd 49 10 8f 3d af bb 8f 3d
       0.02405949 -0.0512549 0.06985528 0.0701822
000060 80 b7 a2 3c b7 d7 d5 3d 8e a0 16 bd b4 e1 21 3d
       0.01986289 0.10441535 -0.03677421 0.039521888
000070 41 ed 45 bd ac 2e a1 bc 13 20 be 3c d7 d8 cf bd
       -0.048321966 -0.019675575 0.023208654 -0.10148781
000080 83 ae 81 3b 0e d0 f0 bc b8 22 4a 3c 72 c3 37 bd
       0.003957571 -0.029396083 0.012337379 -0.044864126
000090 25 97 0c bd 24 cf f7 bc b9 4f d3 bd 5e 09 b2 bd
       -0.03432383 -0.03025014 -0.1031794 -0.08693193
0000a0 d2 18 ea 3d 68 be 75 3b 40 83 d4 3c c0 b0 06 bd
       0.11430515 0.0037497524 0.025941491 -0.032883406
0000b0 66 1a b5 bc de 6c a5 3d 2e b3 ef 3c b3 37 8c bc
       -0.022107314 0.080774054 0.029260244 -0.017116403
0000c0 e8 65 f6 3d e8 ce 9e 3c d9 9d 86 bd 26 4b eb 3d
       0.12031156 0.01938577 -0.06573076 0.11488943
0000d0 eb e2 5e 3d ea 42 9e bd 2f c5 ed 3e c8 8c 2b 3e
       0.054415625 -0.077276066 0.46439502 0.16752923
0000e0 07 a0 32 3e ea 3b b5 bd 17 ca a4 3e 75 a6 6b bf
       0.17443858 -0.08849318 0.32185432 -0.9205087
0000f0 ea 03 bd bd 94 11 c9 3e 94 72 11 3f 99 3f 44 be
       -0.09229262 0.39271224 0.5681546 -0.19164886
000100 55 91 2a bb a0 7f fa 3e ab bb 2d be e5 de ee bc
       -0.0026026566 0.48925495 -0.16966121 -0.029159019
000110 ae 91 f0 3d c4 88 82 3e 1f 79 62 bd 83 61 01 3e
       0.11746536 0.2549497 -0.05529129 0.12634854
000120 df 10 41 bd 13 24 e9 bc 81 a4 94 bd 02 9a 40 3e
       -0.04713523 -0.028459584 -0.07257939 0.1880875
000130 cf 3a af 3d ad 84 dd bc f1 95 95 3d be 5f 4c 3c
       0.08556139 -0.027040804 0.0730399 0.012473999
000140 02 ef d1 3b 03 03 fb bc 23 d5 4c bc 53 7b 57 3b
       0.006406666 -0.030641085 -0.012501988 0.0032879903
000150 c5 83 59 bd 15 f2 9c bc e3 90 81 3c 5a 19 f4 3c
       -0.05310418 -0.019158402 0.015816158 0.029797245
000160 fe 3f 45 be 5d da 58 be a2 de 50 be a9 c4 4b bd
       -0.19262692 -0.21177049 -0.20397428 -0.049748097
000170 b9 46 90 bd c9 cf ad 3d 99 6f 3d bd f5 0b d9 3d
       -0.07044739 0.084868975 -0.046249006 0.10597984
000180 97 bd 56 3d 8a 50 07 bd 21 02 07 3e dc a4 32 3d
       0.0524269 -0.033035792 0.13184406 0.043614253
000190 33 07 59 3e f3 c3 72 bd 35 9f b3 bd 1d 2b 0a 3e
       0.21194153 -0.059268903 -0.08770601 0.13493009
0001a0 bf ab 8c be cb 7d 5b be ff db 3d 3e af 69 8d 3e
       -0.27474782 -0.21434705 0.18540953 0.27619693
0001b0 2a 7a 1b 3d e2 a6 80 bd c2 39 c3 3e 3d c9 67 bf
       0.0379583 -0.0628183 0.38130003 -0.9054144
0001c0 51 1c 01 be d7 e0 16 3f eb 15 37 3f f1 07 1f be
       -0.12608458 0.5893683 0.7151782 -0.15530373
0001d0 b5 90 c5 3d c3 3f f3 3e 60 21 87 be 15 e2 06 3d
       0.09646741 0.47509584 -0.2639265 0.032930452
0001e0 15 af 05 3e 3d 27 89 3e 23 97 0c be 8b 53 24 3e
       0.1305507 0.2678775 -0.13729529 0.16047494
0001f0 60 7f e5 bd f4 8b 02 be a7 1e 14 be 25 bf b4 3d
       -0.112059355 -0.127487 -0.14464818 0.088255204
000200 eb f6 5a 3b 12 24 d7 3c 4c fc b6 3d c2 3b 5a bb
       0.0033411335 0.026262317 0.089348406 -0.0033299779
000210 7d 7b a3 3d 9c 10 e4 bc e4 8e 05 bd 9e 15 dd 3a
       0.07982538 -0.027839951 -0.032606974 0.0016867404
000220 a5 51 ca b9 5d a9 54 3d 2d ca 10 bb e5 2f 95 3c
       -0.00038589272 0.05191933 -0.0022093162 0.018211314
000230 ff ef 60 be a3 84 18 be 77 cc 78 be d5 2c a5 3d
       -0.21966551 -0.14894347 -0.24296747 0.08065192
000240 50 07 1f 3d 85 69 eb 3b c7 2f 4a bc 4c ea 35 3e
       0.038825333 0.00718421 -0.012340493 0.17765158
000250 87 04 11 3e f5 e5 af bd 05 df b2 3d da b3 36 bd
       0.14161883 -0.08588783 0.08733944 -0.044605114
000260 ce e0 98 3d f7 35 5a 3d 22 24 06 3d 4a 90 c3 3d
       0.07464753 0.05327412 0.032749303 0.09549005
000270 43 7d 47 bf 10 a7 bd be 4e d9 2c be f9 65 e7 3e
       -0.7792551 -0.3704152 -0.1687977 0.45194986
000280 8e 77 f9 3d 8a 87 f6 3b 26 aa b5 3e 0e ca 5b bf
       0.12181006 0.0075234817 0.35481375 -0.85855186
000290 7e 0c 32 be 71 f8 72 3f 19 7f 4b 3f 76 48 13 be
       -0.17387578 0.9491034 0.7949081 -0.1438311
0002a0 b4 55 ec 3d ab d9 01 3f 46 72 87 be 53 91 38 3d
       0.11539784 0.5072276 -0.2645437 0.045060467
0002b0 e6 9b 59 3e e9 b8 5d 3e dc a1 27 be fb a5 2f 3e
       0.21250877 0.21652569 -0.16370338 0.1715316
0002c0 b3 f8 53 be 53 7b d6 bd 68 1c 35 be 36 f3 a8 3d
       -0.2070034 -0.10472741 -0.17686617 0.08249514
0002d0 2c f5 84 3d 24 3a 00 3e 84 d1 2a 3d 1e 9b 74 3d
       0.06492075 0.12522179 0.041703716 0.059718244
0002e0 19 c6 ac bd f5 b2 4e 3a 34 50 d5 3c af 4d f5 ba
       -0.08436222 0.0007884943 0.02603922 -0.0018715168
0002f0 64 79 ed bc 52 7c d9 3d cc 63 7d bc 7d 20 20 3d
       -0.028988548 0.10619415 -0.015465688 0.039093483
000300 0e e6 46 be 77 b1 35 be 53 4e 8e be bb ff 43 3c
       -0.19423696 -0.17743479 -0.27794132 0.011962826
000310 27 fe 83 bd 24 28 ba 3d 15 a1 d4 bd 18 9f 79 3e
       -0.0644496 0.090896875 -0.103822865 0.24377096
000320 f8 b4 5b 3e 39 ea 36 bd 79 ec 81 3d 86 fb b4 bd
       0.21455753 -0.044656966 0.06343932 -0.08837037
000330 df 94 a2 3d 75 63 26 3e 3d 3b 15 3e 3b b1 e1 3d
       0.07938551 0.16248877 0.14573379 0.11020132
000340 96 90 f9 bf 32 49 e0 bd 49 b4 90 bf 8c 47 ac bf
       -1.9497249 -0.10951461 -1.1305019 -1.3459334
000350 ac ab 2b 3f 27 39 4d bf 81 b8 a7 3e 20 c4 3b bf
       0.67058825 -0.8016533 0.32757953 -0.7334614
000360 da 52 13 be ed 02 e5 3f e4 18 7a 3f 88 94 d7 bc
       -0.14387074 1.7891518 0.9769423 -0.026315942
000370 c8 66 2e 3e 3c 4b bb 3e 58 a3 31 be 72 7a 56 3c
       0.17031395 0.36580837 -0.17347467 0.013090717
000380 fb 17 92 3e 12 da 3c 3e b5 9d ba bd ab 0e 05 3e
       0.2853392 0.18442562 -0.091121115 0.12993877
000390 ce 4f ba be 81 ad 7a bd 2b ef 7c be 53 48 76 3e
       -0.3638901 -0.061200622 -0.2470061 0.24051027
0003a0 44 63 5e 3c ea ef d0 3c 16 ad 44 3d db 54 4e be
       0.013573471 0.025505025 0.04801663 -0.20149557
0003b0 8c cc fd bc 96 bf 1a 3d 0d e1 78 3b ac f8 17 3e
       -0.030981325 0.037780367 0.0037975938 0.14840955
0003c0 5f d6 fb 3d 9b 0b 1d be d0 95 5e bd 48 8f 07 bd
       0.122967474 -0.15336458 -0.05434209 -0.033095628
0003d0 7b d1 0e be df c0 ad bd c6 28 97 be 73 52 98 bd
       -0.13947098 -0.08484053 -0.29523295 -0.07437601
0003e0 fe 6c 0b bd 28 be 59 be bb 60 40 be 59 0e 6d 3e
       -0.03403949 -0.21263945 -0.187869 0.23150004
0003f0 2f ac da 3d 45 c4 41 3d 47 90 8f 3e 73 31 e9 bd
       0.10677373 0.047306318 0.28039762 -0.11386385

actor.0.bias f4 [128]
000000 a4 09 36 3e 04 59 a1 3d 85 3a 63 3d e8 0b 38 bd
       0.17777115 0.078783065 0.05547573 -0.04493323
000010 75 84 d8 3d ed 73 e5 3d cf b2 00 be 20 4a fa bd
       0.10572139 0.11203752 -0.1256821 -0.122211695
000020 8a 97 4f 3d 09 d2 9f be 9f e3 44 be e8 90 5a be
       0.05068163 -0.31214932 -0.19227456 -0.2134434
000030 5e 7e ac bd 12 a2 57 bd 0c af b9 bc 80 73 00 3e
       -0.0842254 -0.052644797 -0.022666477 0.1254406
000040 96 9e e5 bd 52 74 f8 bd 55 4e 0a be 79 89 44 be
       -0.112118885 -0.12131561 -0.13506444 -0.19193067
000050 0a f2 80 bb 5f f0 3c bb b3 10 68 3e 44 48 ec bd
       -0.0039351033 -0.0028829796 0.2266262 -0.11537221
000060 ac 92 d5 bc 55 5b 1b be f8 5d 96 3d cb ff 39 bd
       -0.026070915 -0.15171559 0.07342142 -0.04540996
000070 69 4d fb bd 5a c8 12 3e 8d 6b f2 bc 8c 34 ad bd
       -0.12270624 0.1433424 -0.0295923 -0.08457288
000080 1e a4 b7 3b 43 df e3 3d c3 46 1e bd e8 b0 f6 3d
       0.005604281 0.11126568 -0.038641702 0.12045461
000090 8e 52 73 bd f7 6a fb 3c e9 61 03 be dd 45 db bc
       -0.059404902 0.030690653 -0.12830319 -0.026766712
0000a0 a9 5c 28 be 85 c9 59 be da 6d 5e be 43 3a 91 3d
       -0.16441597 -0.2126828 -0.21721593 0.07091191
0000b0 55 ab 03 3d 1b 04 db bd 0a b8 90 be 6b 82 80 bd
       0.032145817 -0.106941424 -0.2826541 -0.06274875
0000c0 76 92 b8 bd 3a ee cb bd da 41 b6 be 59 20 ce bd
       -0.0901231 -0.099575475 -0.35597116 -0.100647636
0000d0 2e 37 13 bd 2f c3 3f bc fd 91 a2 3d e8 4a 01 bd
       -0.035941295 -0.01170425 0.07938001 -0.031565577
0000e0 c5 fd a1 bc f6 34 09 be 8b 51 fc 3d be fc dd 3c
       -0.019774327 -0.13399109 0.123202406 0.027098056
0000f0 38 11 8b be 17 25 82 bd c7 2c 19 bd 88 60 23 bd
       -0.27161574 -0.063547306 -0.03739622 -0.03988698
000100 10 8e ff bd dc b9 c4 3d 64 b7 07 3e 90 c8 9d bd
       -0.12478268 0.09605762 0.13253552 -0.0770427
000110 f9 4c 8a be a5 b6 8f bd 99 22 15 be 53 40 1c bb
       -0.2701185 -0.070172586 -0.14563979 -0.002384205
000120 37 4d 04 be 5e 4e d2 bd d5 64 07 be 9e 9d 1c 3e
       -0.1292008 -0.102688536 -0.13222058 0.15294501
000130 de 5c be bc 58 82 40 be fa 66 14 3c d0 aa ab bb
       -0.023237642 -0.18799722 0.009057755 -0.0052388683
000140 65 0e 3b 3c 52 22 f4 3c a6 e7 24 be fa e6 19 bd
       0.011417006 0.029801521 -0.16103992 -0.037573792
000150 98 a0 0e be a0 52 14 be 1b bb 7d be e0 57 0e 3c
       -0.13928449 -0.14484644 -0.24778406 0.008687943
000160 7e 89 1c 3e f3 74 9c 3d 6d cc 5f be 76 59 b9 bc
       0.15286824 0.07639494 -0.21855326 -0.022625666
000170 6e eb c4 bd 92 d5 d5 bd 3f 11 fd bd fb 11 f8 3d
       -0.09615217 -0.10441126 -0.12356805 0.121128045
000180 f9 db e5 3d f4 cf f5 bd b3 79 09 3e 91 1b 7a bd
       0.11223597 -0.120025545 0.13425331 -0.061061446
000190 b7 62 fa bd 77 28 0b be 72 9f d4 bd 18 70 8b 3d
       -0.122258596 -0.13589655 -0.10381974 0.068084896
0001a0 12 08 8e be 94 19 60 3d 4e 57 a6 be 62 e9 a3 bd
       -0.27740532 0.054711893 -0.32488483 -0.080034986
0001b0 64 f0 ff bd 96 12 c3 bd 10 11 d2 be 1c 26 48 be
       -0.12497023 -0.09525029 -0.41028643 -0.19545788
0001c0 31 63 80 3d cf 25 2e 3a 3e 6d 94 3d 46 d0 86 3d
       0.06268919 0.0006643207 0.07247399 0.06582694
0001d0 ee 31 01 bc 4e 08 80 be 40 5b 8c bd 15 4d 80 bc
       -0.007885439 -0.25006336 -0.06853342 -0.015661756
0001e0 ce 66 c0 bd fe 3e 84 3d cd a0 9e bd 8b d6 b1 3d
       -0.093946084 0.06457327 -0.07745514 0.08683499
0001f0 1a 5f 48 3d 90 0f 69 3d b9 26 25 be 1c 57 48 3c
       0.04891882 0.056899607 -0.16128053 0.0122278

actor.2.weight f4 [128, 128]
000000 a5 19 19 bd 83 93 15 3e 33 77 da 3e 9c 61 86 be
       -0.037377972 0.14607053 0.42669067 -0.26246345
000010 85 5a 94 bd 06 31 c1 3d 80 7c 73 3c 63 2f f5 3c
       -0.07243828 0.094331786 0.014861226 0.029929822
000020 4b c8 a1 bc 2f 7a 03 3f 60 37 3a bd 05 77 cb bd
       -0.019748827 0.5135831 -0.045462966 -0.099348105
000030 d4 e9 5e be 26 aa 0f 3e fb 9b 68 bc 71 5d 17 bf
       -0.21768886 0.1402975 -0.014197345 -0.59126955
000040 75 a1 f9 3d 33 fb f5 bd cd 00 10 3e 30 cf ac bd
       0.121889986 -0.12010803 0.14062805 -0.084379554
000050 73 39 f8 3d 6c 4e a7 be 1e 19 8f 3e 6a c1 a4 be
       0.121203326 -0.3267702 0.2794885 -0.32178813
000060 65 b8 10 be bb c0 96 3d 4d 26 fb 3b 5b ea d1 3d
       -0.14132841 0.07360979 0.007664478 0.10249778
000070 40 49 fb bd b8 c8 bd bd ec 33 a8 bd 97 d8 14 be
       -0.12269831 -0.092668 -0.08213028 -0.14535747
000080 53 60 03 3e 41 d7 b3 3e 82 be 24 bd d2 ed fe be
       0.12829714 0.35125163 -0.040220745 -0.49790817
000090 5d 3d f4 3c d8 c1 b8 be e1 06 0a be b9 31 0c be
       0.029814417 -0.3608539 -0.13479187 -0.13690843
0000a0 78 ce 8d bd f2 43 c3 3d 83 43 00 3e 0f 87 65 bd
       -0.069241464 0.09534444 0.12525754 -0.056037005
0000b0 59 b9 0b be 50 f6 82 3c 61 16 12 3e 9b d6 64 3d
       -0.13644923 0.015986592 0.1426635 0.055868726
0000c0 18 87 bb bd d4 c5 95 be 79 92 2d bd 70 81 9b 3e
       -0.091566265 -0.29252493 -0.042376015 0.3037219
0000d0 a4 ae cb bd 5b af 08 be 94 15 b9 bd 06 c2 a0 3c
       -0.099454194 -0.13348143 -0.09037319 0.019623768
0000e0 d0 27 58 3e 87 1e 31 3d a9 bd 0a 3e fe 88 0a 3e
       0.21108937 0.043242004 0.13548912 0.13528821
0000f0 ac e4 a1 be 2a db e2 be ff ea 33 3e 7f f5 ae be
       -0.31619775 -0.44307834 0.17570113 -0.34171674
000100 26 ba 7c 3c ab 15 a4 bd bf 94 b0 bc 2b cb c0 bd
       0.015425241 -0.08011945 -0.021555303 -0.09413751
000110 e4 34 bc 3d 80 b5 cf 3d 0e 70 f2 ba 75 60 69 3d
       0.091897756 0.1014204 -0.001849653 0.056976754
000120 e7 aa 31 bd 6f c4 f1 bd a4 43 88 3e 31 19 61 3e
       -0.043375876 -0.11805045 0.26614106 0.21982266
000130 2d 4e 84 bd df a3 ed 3d 63 f4 47 3d d9 81 64 3e
       -0.06460223 0.116035216 0.04881705 0.22315158
000140 97 c2 4e bc e6 ce 41 be a6 34 c9 bc 29 6b e6 be
       -0.012619636 -0.18926582 -0.024561238 -0.45003632
000150 c3 ff 32 bd 6f c5 0b be dc 8d 15 bd 9e 27 81 3e
       -0.043700945 -0.13649534 -0.03651224 0.25225538
000160 33 8d 1c bf 7b 7f f9 bd 2f 10 60 be b0 45 e5 bd
       -0.6115295 -0.12182518 -0.21881174 -0.111949325
000170 2d 07 95 bd 33 f4 8f 3c 8b 13 ab 3e 17 03 4e bd
       -0.07276759 0.017572498 0.33413348 -0.050295915
000180 e6 ec 6e bd 42 4a 5f 3e 33 7d a2 bd 9d ca 77 3e
       -0.058331393 0.21805671 -0.07934036 0.24198385
000190 db 77 ce 3b 90 98 b8 3d 43 58 da bb 58 02 4d 3e
       0.006300909 0.09013474 -0.0066633536 0.20020425
0001a0 e9 36 64 be 97 26 b6 bc f4 c2 9c bc be 66 c8 bd
       -0.22286572 -0.022235198 -0.01913593 -0.097852215
0001b0 30 45 8f bd ba 47 8c 3b d0 58 4a bd 80 8b a3 be
       -0.06995618 0.0042810114 -0.049401104 -0.31942368
0001c0 3b 47 b7 3d 64 98 87 be 28 12 d3 bd a3 2d b8 be
       0.08949133 -0.26483452 -0.103061974 -0.35972318
0001d0 a6 4c c4 be 52 27 89 be d0 80 11 be a8 9f 8c ba
       -0.38339728 -0.26787812 -0.14209294 -0.0010728734
0001e0 c5 c3 c8 bb 19 45 3e bd 84 b8 31 bd ee 79 8e 3c
       -0.006126853 -0.046452615 -0.04338886 0.017392125
0001f0 07 c4 4c 3b 1a 7d 94 3e 4e 5b c4 bc 02 91 43 3d
       0.003124477 0.29001695 -0.023969319 0.047745712
000200 39 c1 be bc 2a 54 5c bd 3f 7f 52 bd 28 d8 e9 bd
       -0.023285495 -0.053791203 -0.051390883 -0.11418182
000210 68 46 02 be 36 41 42 bd 1f d6 96 3a 33 05 68 be
       -0.1272217 -0.04742547 0.0011507905 -0.22658233
000220 07 b0 c3 bd 56 46 f9 bd 0c d4 29 bd 65 b9 c1 bb
       -0.09555059 -0.12171619 -0.04146199 -0.0059119933
000230 a3 4f 6f bd 1e 46 20 3d 02 e7 1f 3d ed ff d7 3c
       -0.058425557 0.03912937 0.039038666 0.026367152
000240 ab 45 cf 3c c4 84 32 be d6 89 17 be 3a e5 d9 3b
       0.025301775 -0.17433459 -0.14798674 0.0066496404
000250 14 30 16 bb 11 3b 22 ba ae 04 1d 3d e3 d9 4e bd
       -0.002291684 -0.0006188611 0.03833454 -0.05050076
000260 be 3f c9 bd 81 18 aa 3d 66 9b 12 3d 67 ae 2a 3d
       -0.09826611 0.08305455 0.03579273 0.04167023
000270 b6 13 44 bd b5 3f e2 bc c4 dc 17 bd 43 15 80 bd
       -0.04787036 -0.027618269 -0.037075773 -0.06254055
000280 d1 e3 46 be cd 08 8f 3d 3b 63 47 be b4 1e 3d bd
       -0.19422843 0.069841005 -0.19471447 -0.04617186
000290 66 0e 03 3d 45 2a 50 bd 8a 07 5d 3c fd 45 32 3d
       0.031996153 -0.05082156 0.013490567 0.043523777
0002a0 52 f6 8a bd 97 af 1a bd 14 f3 29 bd bb a1 6f bd
       -0.06785263 -0.03776511 -0.041491583 -0.058503848
0002b0 d1 57 ce ba 71 1d 14 3b 83 1d 8f b9 56 51 9b 3d
       -0.0015742724 0.0022600556 -0.00027297073 0.07583873
0002c0 4b 4d da 3d 5b 04 60 bd 34 15 46 be a3 4f 3b bd
       0.10659274 -0.054691654 -0.19344026 -0.045730244
0002d0 ab 3c 00 3e 01 f9 0c 3d 60 59 cd bd 64 78 57 3d
       0.12523143 0.034417156 -0.100268126 0.052605048
0002e0 7c 61 38 be be f7 6c be 07 a8 58 3e 30 d3 86 bc
       -0.18005937 -0.23141381 0.21157847 -0.016458124
0002f0 1d 88 1c ba c8 77 e0 bc ad eb f5 3d b3 de 53 bd
       -0.000597121 -0.027400866 0.12007842 -0.051726054
000300 32 87 b4 bd c7 c7 2c bd dd 91 be 3c a4 d2 19 3d
       -0.08814849 -0.04218271 0.023262912 0.0375544
000310 1d 28 49 3b fa 30 78 bd 9b fe 8b 3c 5a 7a b6 bd
       0.0030694075 -0.060593583 0.017089179 -0.089100555
000320 7c ab 81 3c 17 0b d9 3c e0 51 43 3c 4b 22 5b 3e
       0.01582884 0.026494546 0.011921376 0.213998
000330 17 27 8c 3d df 44 82 3c 6d 31 52 bd 30 3b d0 bc
       0.06843393 0.01590198 -0.051316667 -0.025418848
000340 97 68 8d 3d 1f 3a ce bc 3f 3f 91 3c 39 11 43 bd
       0.069047146 -0.025174199 0.017730353 -0.047623847
000350 be b7 b2 3c 54 79 86 bd e4 a7 2e bd e3 60 a3 bc
       0.02181613 -0.0656611 -0.04264058 -0.01994366
000360 f7 12 2f 3d 39 93 cd bd b3 a6 37 bd 9f f9 80 3d
       0.042742696 -0.10037846 -0.04483671 0.062976114
000370 69 4f 49 bd 7e 5c 51 bd bd fd 31 3c 5b 5f 0c 3e
       -0.049147997 -0.051113598 0.010863719 0.1370825
000380 fe af 0c 3e 00 b8 18 be 51 32 8f 3d f4 27 6f bd
       0.1373901 -0.1491394 0.06992019 -0.05838771
000390 9f 0e b7 bd 2d e8 9f 3d 84 ae 4a bd 82 47 f4 3c
       -0.089383356 0.07807956 -0.049482837 0.029819254
0003a0 80 07 01 be 20 f6 82 bc 03 a3 cd bd 3d f3 a1 be
       -0.12600517 -0.015986502 -0.10040858 -0.3163089
0003b0 ee 8b 4b 3c 97 56 a4 be f9 ff 05 be ac 82 1a bd
       0.012423499 -0.32097313 -0.13085927 -0.037722275
0003c0 fb c8 7a bd 4a 95 04 bd 97 b8 5c bd 17 e0 55 bd
       -0.061226826 -0.032368936 -0.053886976 -0.05221566
0003d0 fc 08 f0 bc 4b 9d 82 3b 37 c2 6d bb cc 52 c1 bd
       -0.02930116 0.003986036 -0.003627909 -0.094396204
0003e0 e0 a0 7b bb af bf bc bc 85 d9 18 bd 2c 40 4b bd
       -0.003839545 -0.02304062 -0.037316818 -0.049621746
0003f0 2a 0c 37 be 99 6a 74 bd 32 7f 11 be f3 54 38 bd
       -0.17875734 -0.059671972 -0.14208677 -0.04500289

actor.2.bias f4 [128]
000000 3f 51 fd bd 1c 35 9d bd 3a 40 1b 3d 9a be aa bb
       -0.12369012 -0.076761454 0.037903048 -0.0052107098
000010 50 f6 e6 bd dc 42 66 be 25 57 17 bf f8 15 04 be
       -0.11277449 -0.22486442 -0.59117347 -0.12899005
000020 b5 ac 57 be e8 78 62 be dd 49 0b be c2 bc 2d 3c
       -0.21061976 -0.22116435 -0.13602395 0.010604085
000030 7b 96 c8 be bb 0a 09 be 25 c0 9b be 53 2c a3 be
       -0.39177307 -0.13383 -0.30420032 -0.31869754
000040 d7 7e 21 3d f9 bd 7e bc ab 3b 7b be a2 0f 85 bd
       0.039427605 -0.015548223 -0.2453448 -0.06497122
000050 19 da d6 bd e0 82 88 bd e7 83 a9 bd 89 8a 73 be
       -0.104908176 -0.066655874 -0.082771115 -0.23783316
000060 13 d0 ba bd 9c c0 b9 bd f4 2c d6 be 43 4c 78 be
       -0.09121718 -0.090699404 -0.41831172 -0.24247842
000070 c8 49 8f bb 7d f2 4e bf 43 28 36 be c8 cf 68 be
       -0.004372809 -0.8083876 -0.17788796 -0.22735512
000080 d9 92 f9 3d db 7a 8d be 23 0b 66 be af 83 41 be
       0.12186212 -0.27632794 -0.22465186 -0.1889789
000090 d3 34 15 3e 41 83 ee bd 84 d3 f5 3d 0b 27 f5 bd
       0.14570932 -0.116461284 0.12003234 -0.119703375
0000a0 cd a0 2b be bc 24 d2 bd 86 7e a2 be 3a d1 20 3d
       -0.1676056 -0.10260913 -0.31737155 0.039262034
0000b0 15 42 8a be 7c 72 97 bd 3c 6c 87 bd 4c 80 9e be
       -0.27003542 -0.07394883 -0.06612441 -0.30957258
0000c0 d6 89 e0 bd 62 e0 d0 be 7e 95 82 be 68 6d 0f be
       -0.1096379 -0.4079619 -0.25504678 -0.14006579
0000d0 64 5a 98 3d e6 22 2b be d3 b4 df bc 16 ca 80 be
       0.07439116 -0.16712531 -0.027307903 -0.2515418
0000e0 16 15 0c 3e 6d 40 00 be a0 24 29 bf 01 92 13 be
       0.13679919 -0.12524576 -0.6607151 -0.14411165
0000f0 19 ee 93 be 03 27 e6 bd c8 dc f8 bd f4 7b 01 3d
       -0.28892592 -0.1123791 -0.12151486 0.03161235
000100 4a e6 01 be d1 32 d8 bd f5 1c 8a 3e fe 85 fd bd
       -0.12685505 -0.105565675 0.26975217 -0.123790726
000110 5d 0a 68 be b3 c0 2a be 12 fc d4 bd c5 66 1a be
       -0.22660203 -0.16675071 -0.10399641 -0.15078266
000120 b4 69 67 be cf 1e 24 3d 4f 96 80 3d 08 bf 0a be
       -0.22598916 0.040068444 0.06278669 -0.13549435
000130 e8 05 1f bf e9 ea 14 be c7 e6 f1 be f4 43 d7 bd
       -0.6211839 -0.14542736 -0.47246382 -0.10511008
000140 25 e6 04 bc 51 38 a8 be 15 53 a2 be 63 99 d8 bd
       -0.008111511 -0.32855466 -0.31704012 -0.10576131
000150 aa 20 eb bd 24 55 88 bb eb b3 68 bd f3 c6 59 be
       -0.114808396 -0.00416054 -0.05681221 -0.212673
000160 2c 30 58 be 9d de 89 be 8a a1 11 be 22 0e a4 bd
       -0.21112126 -0.26927653 -0.14221779 -0.08010508
000170 06 5a 6e be f1 c0 b9 be 3d 85 f2 3b 61 ff f7 bd
       -0.23276529 -0.36280015 0.007401137 -0.121092565
000180 09 df 13 be 85 56 ec bd 22 ac 63 be cd 50 3b be
       -0.1444055 -0.1153994 -0.22233632 -0.18292542
000190 d9 8f c8 bd 0f e4 35 be 2c 3f 11 3e a2 d8 1f be
       -0.09793062 -0.17762779 0.14184254 -0.15609983
0001a0 d6 85 29 be ec 3d 7a be 00 b6 f6 bd b8 68 5d be
       -0.1655496 -0.24437684 -0.120464325 -0.21621978
0001b0 2e 4d ed bd f4 59 90 bd e2 94 ca bd 38 fd 8b be
       -0.115869865 -0.07048407 -0.098916784 -0.27341628
0001c0 51 cb 2c bf 9c 81 ca bd 9f ad fb bd 91 6e ea be
       -0.67497736 -0.09888002 -0.12288975 -0.4578748
0001d0 06 d2 e7 bd 9e 1e 3f bf 08 ab 9d bc c0 3a 15 bd
       -0.11319356 -0.74656093 -0.019246593 -0.03643298
0001e0 21 6f cb bd a9 58 81 bd 83 5d 9d be 73 d5 9b be
       -0.099333055 -0.06315739 -0.30735406 -0.30436286
0001f0 c9 93 06 be 0f ac 09 be 8d f9 1b be 09 07 5e bd
       -0.13142313 -0.13444541 -0.15231915 -0.054205928

actor.4.weight f4 [128, 128]
000000 5c 79 eb bd 6a ee 02 3e ea df d2 bd 05 66 ef bd
       -0.11497757 0.1278626 -0.102966145 -0.116893806
000010 83 c8 49 bd 90 2a 83 bd 74 b0 56 bd 61 b6 cb 3c
       -0.04926349 -0.064046025 -0.052414373 0.024867238
000020 22 0f 81 3d ec 26 69 bd b5 f5 d7 3c e6 8f b2 3d
       0.063017145 -0.056921884 0.02636228 0.08718853
000030 a7 de e7 3d 5a 83 ae 3d 27 31 4d be 15 e7 2e be
       0.113217644 0.08521147 -0.20038281 -0.17080338
000040 82 81 2f 3d 0b 7a a9 3c 27 bb b2 be 0f 42 27 bc
       0.042848118 0.020688077 -0.3490841 -0.010208621
000050 82 09 aa bd 9d 04 b7 3c 23 fa 8f bd 39 0b b1 3d
       -0.08302595 0.022341067 -0.07030132 0.08644719
000060 6e 09 aa 3d 9b 1f ec bd 43 1c da 3c 48 41 8a bc
       0.0830258 -0.11529466 0.026624804 -0.016876832
000070 86 75 eb bd df 15 98 3d 79 d4 8b bc b6 b0 b9 3d
       -0.11497025 0.074260466 -0.017069088 0.09066908
000080 20 6f 80 be ee ad 51 3e f6 35 9a bd dd b0 82 bd
       -0.25084782 0.20476505 -0.075298235 -0.0638139
000090 60 41 b6 bc 31 dc e5 3d 0e c5 7f be 09 bf d1 3d
       -0.02224797 0.11223639 -0.24977514 0.10241515
0000a0 22 98 a2 bb 1d cb b1 bb d0 53 0a 3d 24 27 4f be
       -0.0049619833 -0.0054258243 0.033771336 -0.20229775
0000b0 9f 2d 52 3e 53 13 0e 3d ea 98 ac bd 50 f3 2b be
       0.20525216 0.034686398 -0.084276035 -0.16792035
0000c0 d3 89 df 3c a4 8f e8 3d f2 10 26 3e 53 30 a7 bd
       0.0272874 0.11355522 0.16217402 -0.08163514
0000d0 00 55 d2 bd 5d e3 f2 bd 59 9a f0 bd ce 9c 8d bd
       -0.10270119 -0.11859772 -0.117481895 -0.06914674
0000e0 5a a5 e2 bc 24 0c 58 bd 30 5a 40 3e fd 56 e9 3c
       -0.027666736 -0.052745953 0.18784404 0.028483862
0000f0 fd 93 4f be b4 b9 ef 3d 2e ef 6f bd 88 3f 86 bc
       -0.20271297 0.11705342 -0.05857771 -0.016387716
000100 cc 9a 86 bd f8 fa a7 bd 50 ce e3 bc 45 40 e3 3d
       -0.06572494 -0.08202165 -0.027808338 0.11096243
000110 d7 d5 de 3e dd 27 78 bc 9e b9 ae 3c 7c d9 53 3e
       0.43522522 -0.015146223 0.021328744 0.20688432
000120 35 86 ca 3c 74 2b 22 3d 8a a4 6c bc 6f 0a aa 3c
       0.024722198 0.03959222 -0.014443526 0.020756928
000130 ec 9c 52 bd cf 44 eb bc a8 8a 25 be 9c 63 02 bd
       -0.051419184 -0.028719334 -0.16166174 -0.031833276
000140 59 ab b5 3d 44 a8 8e 3d 79 12 13 3d a6 3f 64 3e
       0.088705726 0.06965688 0.03590629 0.22289905
000150 1d dd af bd eb 60 4f be ba 1c 62 be 58 d2 8d 3d
       -0.08587096 -0.20251815 -0.22081271 0.069248855
000160 9d 24 df 3e 2e b9 92 bd ac 7b a1 3d 0e fa a2 3c
       0.4358262 -0.071642265 0.07884917 0.019894626
000170 aa 7e 33 bd 17 c3 96 3d 82 83 96 3c 07 e2 01 bd
       -0.04382197 0.07361429 0.018373255 -0.031709697
000180 5f 75 b2 3d 7a 57 1a be 1c 7e b3 be 92 29 36 3e
       0.08713793 -0.15072432 -0.3505715 0.17789295
000190 61 13 17 be ef c0 52 3e bb 3a 00 3f 8e 83 f5 3d
       -0.14753486 0.20581411 0.50089616 0.11987983
0001a0 1b 9f b4 bb 73 07 75 bc 46 31 9f 3d e6 6d 5f bd
       -0.005512131 -0.014955389 0.0777307 -0.054548167
0001b0 48 af 85 bb 85 ff 47 bc 16 46 84 bd fd f2 20 3e
       -0.004079733 -0.012206917 -0.0645868 0.15717693
0001c0 ab 0b 3c 3e 83 25 a7 3d 7e 0e 84 bd d4 76 25 be
       0.18363826 0.08161452 -0.06448077 -0.1615861
0001d0 7a 7f 3d bd 96 8a 93 3d 5b dc ec bd 58 80 8c bd
       -0.04626415 0.072041675 -0.11565467 -0.06860417
0001e0 4a 23 dc 3d 78 09 10 3d 7f be ec 3c 85 94 f2 3c
       0.10748918 0.03516528 0.02889943 0.029611835
0001f0 c1 7a a5 bd cd d7 54 bd 8a b6 f8 bd 41 e3 64 be
       -0.08080054 -0.051963616 -0.121441916 -0.22352315
000200 6e 40 ee 3d d1 5a 29 3d 01 49 78 3c 2b eb 1a bd
       0.11633383 0.041346375 0.015154124 -0.03782193
000210 72 fb 8d 3c 02 38 b6 3e 19 c6 4a 3f f5 a4 0d 3e
       0.017331813 0.35589606 0.79208523 0.13832457
000220 fc 4e 83 3e fd bc 17 be 2f 63 ab bd c2 31 fa bc
       0.25646198 -0.14818187 -0.08368527 -0.030541304
000230 86 5e b1 3e 6a 4f be 3e 6d 20 a4 3e 0f 8c 6d 3e
       0.34642428 0.37169963 0.3205599 0.2319796
000240 9b 1f db bd 10 db 23 be 80 b2 01 3e 76 fb 07 bd
       -0.10699388 -0.16001534 0.12665749 -0.033198796
000250 f4 2f 02 3e 25 80 1a be cc ed 38 3e d6 8c 36 3e
       0.12713605 -0.15087946 0.18059462 0.17827162
000260 b7 3c 29 be a7 6c 12 3d 8a a4 71 3e b2 bd 5b bc
       -0.16527067 0.03574815 0.23597923 -0.013411926
000270 fa 32 a3 3b fa ba 21 3e 60 86 57 be 4b 57 e8 be
       0.004980442 0.15793982 -0.21047354 -0.453791
000280 d4 a8 1f 3e 8c d5 45 be c5 4f 29 3d 1a 7e e5 3c
       0.15591747 -0.19319743 0.04133584 0.028014231
000290 2e f8 86 be f5 13 aa 3d 7c 14 71 be ce 6f 77 bd
       -0.2636122 0.08304588 -0.2354297 -0.06040936
0002a0 6b 3a 80 bd 3f cc a5 be 79 ce f1 3d f5 38 91 be
       -0.06261142 -0.3238239 0.1180696 -0.28363767
0002b0 35 50 17 3e 74 a4 43 be 5d c9 8c 3d 65 7f c1 3e
       0.1477669 -0.19105703 0.068743445 0.37792507
0002c0 d0 64 15 be b5 fb cd 3d 3a 45 46 3e bd b6 f8 3d
       -0.14589238 0.10057775 0.19362345 0.121442296
0002d0 12 14 41 3e 94 c4 bb bd ba 9c b9 3e cb bd d5 3e
       0.18855312 -0.09168354 0.36252385 0.41746363
0002e0 b4 65 82 be d8 b3 92 be 8f 3a 68 bd 7b 3a ae bd
       -0.25468218 -0.28652835 -0.05669647 -0.08507248
0002f0 ef d0 ea bd 84 a5 9f 3d 73 af e5 3b 48 45 f0 be
       -0.11465632 0.077952415 0.0070094406 -0.46927857
000300 9f 9a 59 bd e7 c5 9e 3e 76 0b dc bd 19 84 8d 3e
       -0.053125974 0.31010363 -0.107443735 0.27639845
000310 04 4c 60 be 9f 20 82 3d f7 ab a6 3e a7 f5 a0 be
       -0.21903998 0.06353878 0.32553074 -0.31437418
000320 97 97 25 3d 09 40 66 3d 75 7e 05 3e f3 f3 88 3e
       0.04042777 0.056213412 0.13036521 0.26748618
000330 f1 41 0e 3e 90 05 cd 3d 95 96 e8 3d 59 13 df bb
       0.13892342 0.100108266 0.11356846 -0.0068077263
000340 88 ab 92 be 71 db 6c 3e a2 e2 ac 3d b0 3f 2f be
       -0.28646493 0.23130585 0.08441664 -0.17114139
000350 3f 62 7b 3e 96 f5 c9 bc ef 07 68 3d 32 c4 27 be
       0.24549197 -0.024653237 0.05664819 -0.16383436
000360 37 17 18 bd cc 49 ef b9 a5 a9 03 3d 5f 5b 0f bd
       -0.037131514 -0.00045640615 0.032144208 -0.034999248
000370 33 8c c3 3d 04 83 38 bd f3 04 0a be b2 cc 1e bd
       0.09548225 -0.04504682 -0.1347845 -0.03876943
000380 96 d5 99 3e ec 7f ac 3e 16 7a 92 3e c6 95 ae 3d
       0.30045766 0.33691347 0.2860877 0.08524661
000390 8d 6b f6 3c fc fd 64 be 4f 90 20 be 9f e5 01 3e
       0.030080581 -0.22362512 -0.1568005 0.1268525
0003a0 7e ca 39 3d a5 80 b1 bd 20 f4 6c 3e 8f 43 9d bd
       0.045359127 -0.08667115 0.23140001 -0.076789014
0003b0 63 7b 92 bd 8a c3 fe bd 07 2c 3c be fd bf 67 3e
       -0.071524404 -0.1243964 -0.1837617 0.22631831
0003c0 95 bb 0b 3f a1 cf e7 3e 6d 4a 2e bd 8c 82 32 3e
       0.545831 0.45275596 -0.042551447 0.17432612
0003d0 55 ba 57 bd 9b b6 f5 3d 6a 41 84 3d 68 e0 19 bd
       -0.052667934 0.1199772 0.06457789 -0.037567526
0003e0 4e 5a 6d be 4f 89 9d bd fb 52 9d 3d 3e 98 5a 3e
       -0.2317898 -0.07692205 0.07681843 0.21347138
0003f0 39 ab 86 3e 99 59 9d 3d 0a 2f 3a be 91 e5 da 3d
       0.26302508 0.07683105 -0.18182006 0.106883176

actor.4.bias f4 [128]
000000 c1 30 38 be b9 94 d1 be 41 d0 8b be 61 ab f1 bd
       -0.17987348 -0.4093378 -0.27307323 -0.11800266
000010 ec 0a f0 bc 2a 85 3d 3d 74 8e d4 bc a7 e5 ac bd
       -0.029302083 0.046269573 -0.025946833 -0.0844224
000020 da 5e 90 be 3e 15 d5 be 6a ba b4 bd 1c 68 a8 bd
       -0.28197366 -0.4161777 -0.08824618 -0.08222982
000030 41 5e 37 bd 2d d6 a2 bd ea 17 52 bd f6 98 68 be
       -0.044767622 -0.07951007 -0.051292337 -0.227146
000040 84 e1 0a be d9 25 97 be d3 78 4b be 51 20 c9 bd
       -0.1356259 -0.29521063 -0.1987031 -0.09820617
000050 44 75 ff bd 90 cc e4 bd f6 e8 07 be c4 16 c4 bd
       -0.124735385 -0.1117183 -0.13272461 -0.09574655
000060 90 36 83 be 6a d1 0d be ec 51 00 be f0 4b c9 bd
       -0.25627565 -0.13849416 -0.1253125 -0.09828937
000070 f0 53 dc bd 7b 49 47 be c2 59 37 be 5d 4a 3c be
       -0.10758197 -0.19461624 -0.17905334 -0.18387742
000080 eb 8c 24 be 07 9a 4e be 0f 00 8f bd 38 90 ba be
       -0.16069381 -0.20175944 -0.06982433 -0.36438155
000090 0b 6f 47 be f1 1d 19 bf 29 77 c8 bc 9b a9 2f be
       -0.19475953 -0.5981131 -0.024470882 -0.17154543
0000a0 53 a1 d3 bc fe 20 9c be d3 c8 56 be 37 eb a1 be
       -0.025833761 -0.3049392 -0.20975046 -0.31624767
0000b0 49 88 51 bd 02 46 06 be 83 de 8e bd 31 2b 97 bd
       -0.051155362 -0.13112643 -0.069760345 -0.07381285
0000c0 93 46 a2 bd 43 e9 ba bd 89 3d c5 bd 8b 9e 14 be
       -0.07923617 -0.091265224 -0.096308775 -0.14513604
0000d0 27 57 95 be 5c 43 eb bd e0 05 c7 be 35 eb fa bd
       -0.29168054 -0.11487457 -0.3887167 -0.122518934
0000e0 8f c0 a3 bd d0 eb 11 bd c2 c5 19 bd f6 43 15 be
       -0.07995712 -0.03562528 -0.037542112 -0.14576706
0000f0 2e 7b 54 bd 95 f9 0f 3d 7a ba 17 bd 95 68 79 be
       -0.051875286 0.03515013 -0.037043072 -0.24356301
000100 d9 07 e6 bd a3 01 51 bd 0c c0 e6 bd c6 4f 19 be
       -0.112319656 -0.05102695 -0.11267099 -0.14971837
000110 83 11 4e be ff 62 f1 bd 74 ab 68 be 30 1c 11 be
       -0.20123868 -0.1178646 -0.22721654 -0.14170909
000120 ae 30 81 be e1 43 ad bd 6e 5f a3 be 89 3a a9 be
       -0.25232452 -0.084602125 -0.31908745 -0.3305247
000130 b2 e1 89 bc 1f dc cb bd 1c 34 bd be 7a b5 7b bd
       -0.016831253 -0.09954094 -0.3695382 -0.061452366
000140 3f 4b b0 bc 30 10 21 be 49 e9 ad bd 0b 90 68 bd
       -0.021520255 -0.15728831 -0.08491761 -0.056777995
000150 58 b3 a0 bd 00 02 96 be 32 ec 4d bd 87 9f ce bd
       -0.07846707 -0.292984 -0.05027408 -0.10089021
000160 2a 7c 5b bc 22 50 aa bd 28 f0 f9 bc 79 71 96 3c
       -0.013396302 -0.08316065 -0.030510023 0.018364655
000170 e1 dd 4a be 8e d4 68 bd 53 a5 b4 bb 7b a7 13 be
       -0.19811203 -0.056843333 -0.0055128722 -0.14419357
000180 88 8d 87 bc 21 4b 1d be 9a de 16 be 8e ab 2e be
       -0.01654698 -0.1536069 -0.14733353 -0.1705763
000190 5b a8 49 be c6 f8 a8 be b0 8e 0c be 15 79 2c be
       -0.19693129 -0.330023 -0.13726306 -0.16843064
0001a0 bc cb 78 be 98 73 a8 bd da 12 f5 bd 18 bc 03 be
       -0.24296468 -0.08225173 -0.11966486 -0.12864721
0001b0 db ff b4 3b 43 ec 94 be 02 23 52 3b f2 3c d6 be
       0.0055236644 -0.29086503 0.0032064323 -0.41843373
0001c0 18 cd 6b be f3 42 c2 bd dc 81 db bf c3 cc ef bd
       -0.23027456 -0.09485426 -1.7149005 -0.11708977
0001d0 ed 0c 26 be 66 27 7b be d5 4f 88 bd b8 7e d8 bd
       -0.16215868 -0.24526748 -0.06655852 -0.10571045
0001e0 03 be 4b bd b1 77 91 be 0d f7 d5 bb 25 bf 90 be
       -0.049741756 -0.2841163 -0.006529695 -0.28270832
0001f0 3d af 4e be 42 03 51 bd b7 2d f0 bd 1d ff ad bd
       -0.20184036 -0.051028498 -0.117274694 -0.084959246

actor.6.weight f4 [12, 128]
000000 02 4b 84 3c 7c 4e 82 bc 09 13 26 bd d4 3f bc bb
       0.016149048 -0.015906565 -0.040545497 -0.0057449136
000010 a4 3c 34 bc 6c f3 3a 3b 40 69 ca ba 57 81 ac bb
       -0.011000786 0.0028526438 -0.0015442744 -0.005264442
000020 bf ad 66 bc 91 c8 33 bd 10 1f de bc aa 62 d8 bc
       -0.01407951 -0.043892447 -0.027114421 -0.026414234
000030 e8 9b 7c 3a df 29 77 bc 35 a9 8b bb d4 73 29 3c
       0.0009636269 -0.015085666 -0.0042621144 0.010342557
000040 1a f6 10 bc 74 a8 b5 bc c6 97 75 bb 50 4d 9f bb
       -0.008847738 -0.022175051 -0.0037474497 -0.0048615113
000050 16 fe d9 3a 4b bd 65 3c 79 ff c5 3c 68 7f 34 bd
       0.001663151 0.014022182 0.02416967 -0.044066817
000060 14 be b1 3c d1 75 52 3b b1 8b 43 3a 5f a2 a3 3b
       0.021697082 0.003211368 0.00074594753 0.0049937214
000070 be 7b 02 bc 40 0f d2 ba 83 b4 88 3a 3b ca 90 3a
       -0.007964073 -0.0016026273 0.0010429773 0.0011046598
000080 1a 9f 54 bb e8 1b 52 bc 96 85 33 3d e0 94 4f bc
       -0.0032443465 -0.012824036 0.04382857 -0.012669772
000090 17 d0 6f bd 02 f4 02 3c 6b f0 9f 3b 3c 5b 0a 3c
       -0.05854806 0.007992746 0.004880955 0.0084446035
0000a0 21 2f 4c bb ea d9 06 3d 1c 9f e2 bc df b8 c1 ba
       -0.003115602 0.032922663 -0.02766376 -0.0014779827
0000b0 31 f9 a1 3c e8 bb 73 bc 31 57 05 3c 25 a2 8d bc
       0.019772144 -0.014876343 0.008138464 -0.01728923
0000c0 69 5d 67 3a b0 10 cf 3a 2e 9f 03 bc 69 6f 0f 3d
       0.000882587 0.001579782 -0.008033557 0.03501836
0000d0 ae 0d 18 bc 49 34 41 bc 7c 32 03 3c 5d 03 72 3c
       -0.009280605 -0.011792251 0.008007642 0.01477131
0000e0 78 62 87 bb 47 c5 e9 ba 78 fc 36 bb 89 27 60 3b
       -0.0041316114 -0.0017835282 -0.002792148 0.0034203252
0000f0 d0 7e a0 3b 98 20 5b bb cb 4f b2 bb d9 18 e1 3b
       0.0048979297 -0.0033436175 -0.005441641 0.006869417
000100 41 6b db 3c 8b c3 28 bb 34 bd 67 bc be 5e ff 3c
       0.026784541 -0.0025751318 -0.014144231 0.031173106
000110 4e 9f c9 bb 6d 83 1a bc 4f 1a d0 3b 1d 14 e8 3b
       -0.006153024 -0.009430748 0.0063507925 0.007082476
000120 73 ca 0c bd 8f e6 8f 3b 32 0b 86 3c e2 70 99 bc
       -0.034372758 0.0043914984 0.01636276 -0.018730585
000130 ce f7 43 bb 05 16 28 bb ad 31 9b 3c a9 49 10 bb
       -0.0029902342 -0.002564789 0.018944586 -0.002201656
000140 14 d8 29 3b 64 89 a8 3b 23 02 ad 3b 14 b3 41 3c
       0.0025916146 0.0051433314 0.0052797957 0.011822481
000150 13 55 3b bb ff c1 f2 3b ec c6 ac 3d 94 c5 0d bd
       -0.0028584644 0.00740838 0.08436379 -0.034612253
000160 65 94 9c b9 34 05 6a 3c 50 21 5c bb f1 e7 41 bb
       -0.000298652 0.014283467 -0.0033589192 -0.002958771
000170 c0 67 cd 3c 1b 70 86 bb ab 63 d8 bb b5 e2 57 bb
       0.025073886 -0.0041027195 -0.006603678 -0.0032941524
000180 4e 4b 1f bb 20 c6 98 3c c1 5a fa 3b 20 10 bd bb
       -0.002430636 0.01864916 0.0076402132 -0.0057697445
000190 80 d0 2b bd 3f 27 ec 3c f6 05 e6 3b bb f4 87 bc
       -0.041946888 0.028827308 0.0070197536 -0.016596189
0001a0 d7 cd 2c ba 37 21 92 3a b7 07 10 bd 83 f9 15 bd
       -0.0006591952 0.0011148815 -0.035163607 -0.036614906
0001b0 61 9c c3 3b f4 58 63 3d 2d b6 0c bc 21 7a 21 3d
       0.0059695696 0.055504754 -0.008588356 0.03942311
0001c0 5c cd fb 3b 21 3c f0 ba f4 a6 05 3d a9 3f d2 bb
       0.007684393 -0.0018328467 0.032629922 -0.0064162803
0001d0 7c 7c e4 bb 50 91 70 3c 53 f4 6a bb e8 1c 3d 3a
       -0.0069728475 0.014683083 -0.0035851195 0.0007214085
0001e0 52 c6 80 bb 77 e3 6c 3b 1d 34 23 bb 88 e6 ec 3d
       -0.0039298916 0.0036146322 -0.0024902888 0.11567408
0001f0 54 b5 ad bd 70 bb 4d bc 51 5d 39 3d f1 b8 94 bc
       -0.08481851 -0.012556896 0.04525501 -0.018154593
000200 2f ff 83 bc 3e e6 21 bd f2 75 5e 3c 6b d0 6b bc
       -0.016112892 -0.039526217 0.013577925 -0.014392952
000210 a4 bf b3 3b 61 3b c8 bb 9a 8e d8 3b 8b 5c 44 bc
       0.005485492 -0.006110594 0.0066087963 -0.011984955
000220 88 ea 24 3d 09 2f fc bb a6 64 10 39 3a ee 34 bd
       0.04026273 -0.0076960367 0.00013770405 -0.044172503
000230 2c 4a ae bd 78 17 37 3d c3 13 b4 3b f8 9f 82 3b
       -0.08510241 0.044700116 0.00549552 0.003986355
000240 49 d0 01 bd b0 33 01 bc 10 76 2a bc bf 0d ce bb
       -0.031692777 -0.007885858 -0.010404125 -0.0062882598
000250 86 c4 38 bb ad 30 b1 3b dd dd 3f 3c 29 36 7b 3c
       -0.002819331 0.005407414 0.011710611 0.015332737
000260 c2 ac e7 bb f2 55 c7 ba 70 a4 0a 3b 84 bf 0e 3c
       -0.007070155 -0.0015208109 0.0021155141 0.008712653
000270 d6 63 ae bb 53 b0 e5 3c 71 96 17 bb 14 68 9f ba
       -0.00532196 0.02803818 -0.0023130442 -0.0012161755
000280 d9 ad 13 3b 66 14 cc bc 26 91 d3 3c a9 a1 9a bc
       0.0022534041 -0.02491207 0.025826048 -0.018875914
000290 3e 21 ad 3d 33 24 01 bc 79 41 7a ba 9a 0e bb bb
       0.08453606 -0.007882166 -0.00095464994 -0.0057085278
0002a0 d0 b8 57 bb 9c 6d 60 bd 66 e7 c1 3a 86 17 c6 3a
       -0.0032916553 -0.05479203 0.0014793694 0.0015113212
0002b0 37 52 55 3c 68 72 f5 bb fa 65 8e 3c b8 56 fb bb
       0.01302009 -0.007490445 0.01738261 -0.00767025
0002c0 ea 34 95 3c dd cf e1 3b ab ec 18 bb ad 6b f9 bb
       0.018213708 0.0068912343 -0.0023334424 -0.007611713
0002d0 b9 c7 85 bc 20 71 c0 bc 09 f4 35 3d 04 95 39 bd
       -0.016330587 -0.023491442 0.044422183 -0.045308128
0002e0 57 7a a8 bb 8c 92 d6 3b 06 40 ab bb 34 e4 14 3d
       -0.005141537 0.0065482315 -0.005226138 0.036350444
0002f0 aa 8c b6 3b 90 d9 0d 3b 1e a9 36 3c e0 c5 b0 bc
       0.0055709677 0.002164457 0.011148719 -0.02157873
000300 9d 22 0f 3d b1 83 d0 ba 2d 16 0c 3d 78 2b 0f 3c
       0.03494512 -0.0015908388 0.034200836 0.008738391
000310 6c 72 2c 3d 82 d6 ce 3b d0 86 f7 bb df 3a 59 3b
       0.04210131 0.0063121924 -0.0075539127 0.0033146662
000320 4a 6e 6b bc a6 28 e5 3b b3 76 0f 3c dd 36 f0 bc
       -0.014369557 0.006993371 0.008756327 -0.029323036
000330 3a 28 17 3b f9 29 84 3b 1e 1f 51 3c 67 8a c4 3b
       0.0023064748 0.004033324 0.012763767 0.005997944
000340 0e 60 1b 3a eb e7 04 bc cb 89 83 3b ae 3b b1 3b
       0.0005927094 -0.008111934 0.004014229 0.0054087257
000350 64 29 71 3b 21 24 b3 3c a6 92 24 b9 cb 75 69 3c
       0.0036798352 0.021867814 -0.0001569489 0.014249275
000360 bf 32 c1 3a fb 35 c2 b9 9c 3b 39 ba 48 c3 26 bb
       0.0014739855 -0.00037042782 -0.00070660724 -0.0025445987
000370 80 2f 59 3c e6 13 27 bb 9b ea c6 bb 64 4c fd bb
       0.013255954 -0.0025494038 -0.0060704476 -0.0077300537
000380 a2 42 87 bb 8e 6e 88 3c e0 78 0f bd 8a 22 ee 3b
       -0.0041278163 0.01665428 -0.035027385 0.007267301
000390 aa 67 e4 3b 20 1b 98 3c 3e 1a 7a 3c fc 6d 98 bc
       0.0069703655 0.018567622 0.015265046 -0.018607132
0003a0 f5 86 46 3a 2d b0 5d bc 0d b6 d7 bc ff 0a 59 bb
       0.0007573211 -0.013530773 -0.026331926 -0.0033118126
0003b0 ee e9 1f 3b 21 15 09 bd 86 af f3 39 49 50 84 3c
       0.0024400908 -0.033467416 0.00046479347 0.016151564
0003c0 aa 1e d2 bb 8c 37 96 3b d7 2b 05 bd c9 b1 19 3c
       -0.006412347 0.0045842584 -0.032512512 0.009380766
0003d0 fc 93 c8 3b 25 72 0e 3d a8 88 11 bb c6 c4 e1 3c
       0.0061211567 0.034776825 -0.0022206698 0.02755965
0003e0 a7 5e c9 3a 90 08 ee bd 56 38 ff b8 e5 1a 46 bb
       0.0015363292 -0.11622727 -0.00012169841 -0.0030228433
0003f0 fc f2 71 3d fd a6 9c bc 4c 7e 77 bc 14 41 70 ba
       0.05906962 -0.019122595 -0.015105795 -0.0009164971

actor.6.bias f4 [12]
000000 85 88 ff bd ff 55 00 3e 82 46 f6 bd 86 b2 f5 3d
       -0.12477211 0.12532805 -0.12025167 0.11996941
000010 71 7d 74 bd c0 e1 74 bd 5e 21 67 3d 3b 99 66 3d
       -0.059689943 -0.059785604 0.056428306 0.056298476
000020 2e 83 2c 3e 5e 6d 2f 3e 17 b5 01 3e b2 01 02 3e
       0.16846916 0.17131564 0.12666737 0.12695959
