tested_policies/go2/go2_imu/exported/policy.pt (torch, 282934 bytes, 8 tensors)

weight f4 [128, 260]
0.0115927905 0.012964048 0.02392283 -0.1911654 -0.43618646 0.106849365 0.2395223 0.9949271
0.24596302 0.1654347 0.4675753 -0.25750887 -0.66012985 0.55344856 0.5652685 0.24197637
-0.37841916 -0.3949164 -0.013693978 0.14963952 0.48808134 -0.66353583 -0.59880805 0.69391865
0.11940016 -0.00507582 -0.043282535 -0.08889053 -0.11543259 -0.023000201 0.060240697 -0.122888215
-0.0388944 0.0339642 0.17373985 0.14479876 -0.10740272 -0.044164967 0.057291407 -0.1256693
-0.112001196 0.21829687 0.08388655 0.13749188 -0.022465685 -0.15817448 0.12382256 -0.17397244
-0.049534112 -0.2071561 -0.29383346 -0.057281893 0.032235947 0.012600062 0.022533849 0.029936066
-0.060779028 -0.23206146 0.18725154 1.0745903 0.23303577 0.40870827 0.3357268 -0.30309984
-0.6537876 0.559084 0.5966737 0.17131215 -0.32937303 -0.4026566 0.049474772 0.077620074
0.52812153 -0.6365946 -0.62279004 0.8064972 0.08503887 0.07675302 -0.10094036 -0.005994965
0.074409366 -0.014652998 0.04396797 -0.081936084 0.09934203 0.14500488 0.063258864 0.12989472
-0.27905875 -0.09031761 0.06785889 0.09160725 -0.021695841 0.10804317 0.081270665 -0.117456034
0.003029904 -0.13080344 0.15909165 -0.16058503 0.05269933 -0.3313503 -0.3602323 -0.023273809
0.023999967 -0.020935964 0.010574546 0.015127697 -0.101411544 -0.23303 0.2092272 1.1280432
0.20105724 0.7937943 0.2551125 0.0020869926 -0.5839905 0.5494386 0.5083331 0.23559533
-0.34349513 -0.3971253 -0.08215592 0.11231766 0.5323697 -0.7765849 -0.6228636 0.8601008
0.016365124 0.028938854 -0.13409372 -0.11961073 -0.06046749 -0.106049284 -0.016470881 -0.011104955
-0.01929559 -0.022321815 0.10841137 0.21200168 -0.10689677 -0.105076924 0.048439328 0.2091419
-0.014871399 0.06155623 -0.019778129 0.030458573 -0.040689092 -0.12821093 0.18419684 -0.11444196
-0.106616676 -0.17193766 -0.19319546 -0.084655486 -0.02604128 -0.0016150459 0.026957177 -0.022819966
0.047753613 0.052635085 0.1784387 1.1676358 0.15175536 1.3646021 -0.13352714 0.30930093
-0.69756395 0.61776435 0.5251843 0.2023381 -0.36121005 -0.4432301 -0.13914295 0.09758557
0.5370642 -0.8192888 -0.64690554 0.8963846 -0.019079303 0.013168358 -0.014217448 0.09591175
-0.13527589 0.01308925 0.048686273 -0.060332857 0.04007322 0.09137284 0.0056218705 0.066494465
-0.12912552 -0.36319065 0.13684462 0.13744591 0.06784199 0.15259555 -0.12828411 -0.07822256
-0.13144608 -0.13658899 0.24061099 -0.21633147 -0.1172884 -0.07252502 -0.09314752 -0.0828414
0.00058647833 -0.034144953 0.055030446 -0.42040074 -0.16594748 -1.4484308 0.1850466 1.2087543
0.18185851 2.3558824 -0.96402425 0.85718524 -0.7887668 0.47999227 0.6241443 0.1748364
-0.3818709 -0.52289534 -0.16668029 -0.047006935 0.5476784 -0.88091004 -0.94361603 1.0968239
-0.09584772 0.07625018 -0.3639674 -0.08949478 0.03646938 -0.07558906 -0.3021164 0.27626368
0.19423021 -0.09488833 -0.25726172 0.22327462 0.06490325 -0.42768824 -0.05180746 0.30066037
0.4476199 -0.33307195 -0.43171537 -0.044529464 -0.39148384 -0.2075341 0.34707716 -0.35877773
00000000: b0ef 3d3c 2967 543c d0f9 c33c ddc0 43be
00000010: d553 dfbe d7d3 da3d 5545 753e 8bb3 7e3f
00000020: bbdd 7b3e b767 293e 0866 ef3e 34d8 83be
00000030: 45fe 28bf ceae 0d3f 70b5 103f a7c8 773e
00000040: 28c0 c1be 7b32 cabe b55c 60bc 1a3b 193e
00000050: cce5 f93e 7cdd 29bf 7c4b 19bf a7a4 313f
00000060: 1288 f43d 1053 a6bb 0749 31bd 3d0c b6bd
00000070: ec67 ecbd eb6a bcbc f3be 763d d1ac fbbd
00000080: bc4f 1fbd 0c1e 0b3d dce8 313e 2046 143e
00000090: f5f5 dbbd 53e6 34bd 65aa 6a3d 74af 00be
000000a0: e260 e5bd 3789 5f3e b6cc ab3d acca 0c3e
000000b0: f509 b8bc 7ef8 21be af96 fd3d d525 32be
000000c0: 48e4 4abd bb20 54be 5771 96be 6ba0 6abd
000000d0: d709 043d 7e70 4e3c e898 b83c 7b3c f53c
000000e0: 6ef3 78bd 85a1 6dbe debe 3f3e 2d8c 893f
000000f0: eea0 6e3e 3642 d13e 62e4 ab3e e72f 9bbe
00000100: a05e 27bf 2120 0f3f 9cbf 183f 746c 2f3e
00000110: 95a3 a8be 0229 cebe 0fa6 4a3d 46f7 9e3d
00000120: f932 073f ddf7 22bf 2b6f 1fbf 9a76 4e3f
00000130: dc28 ae3d b030 9d3d d2b9 cebd 6971 c4bb
00000140: f063 983d 2113 70bc c217 343d 1bce a7bd
00000150: d673 cb3d 297c 143e dd8d 813d 1f03 053e
00000160: cae0 8ebe 70f8 b8bd 9af9 8a3d 959c bb3d
00000170: 7abb b1bc bd45 dd3d 3c71 a63d ca8c f0bd
00000180: 5b91 463b 56f1 05be ece8 223e 6770 24be
00000190: 41db 573d bfa6 a9be 5e70 b8be b7a8 bebc
000001a0: 949b c43c e681 abbc dc40 2d3c 29da 773c
000001b0: dbb0 cfbd 6b9f 6ebe a83f 563e b863 903f
000001c0: f3e1 4d3e 1a36 4b3f 1b9e 823e edc5 083b
000001d0: 6780 15bf 02a8 0c3f 1e22 023f e73f 713e
000001e0: 98de afbe 0254 cbbe 5d41 a8bd cd06 e63d
000001f0: 6149 083f 45ce 46bf fd73 1fbf 912f 5c3f
00000200: 2710 863c 2d11 ed3c dd4f 09be 78f6 f4bd
00000210: c2ac 77bd 5e30 d9bd f1ed 86bc 8ff1 35bc
00000220: c911 9ebc 3ddc b6bc c806 de3d f816 593e
00000230: b2ec dabd 9232 d7bd 5168 463d 4b29 563e
00000240: 2ba7 73bc 6322 7c3d be05 a2bc 4284 f93c
00000250: 9ba9 26bd ba49 03be 199e 3c3e 8c60 eabd
00000260: d859 dabd 6d10 30be 08d5 45be db5f adbd
00000270: 8654 d5bc f3af d3ba 4cd5 dc3c f0f0 babc
00000280: 4b99 433d e397 573d a2b8 363e 1775 953f
00000290: c265 1b3e 48ab ae3f 57bb 08be b15c 9e3e
000002a0: 8d93 32bf ce25 1e3f 7a72 063f b831 4f3e
000002b0: 86f0 b8be 0eef e2be 7d7b 0ebe f1da c73d
000002c0: 0a7d 093f e9bc 51bf 9a9b 25bf 7679 653f
000002d0: 334c 9cbc 19c0 573c 4df0 68bc 616d c43d
000002e0: c385 0abe 4b74 563c 426b 473d 961f 77bd
000002f0: d123 243d af21 bb3d ab37 b83b 402e 883d
00000300: 7b39 04be 20f4 b9be ff20 0c3e 9fbe 0c3e
00000310: bef0 8a3d 0242 1c3e e95c 03be 2633 a0bd
00000320: cd99 06be fcdd 0bbe ba62 763e ff85 5dbe
00000330: e734 f0bd ff87 94bd 21c4 bebd c0a8 a9bd
00000340: e5bd 193a 94db 0bbd 9b67 613d c43e d7be
00000350: 23ee 29be 2e66 b9bf db7c 3d3e 76b8 9a3f
00000360: 1e39 3a3e c7c6 1640 4bca 76bf 7e70 5b3f
00000370: 9fec 49bf 8cc1 f53e ecc7 1f3f 5008 333e
00000380: 9584 c3be 78dc 05bf 3dae 2abe 588a 40bd
00000390: a734 0c3f 5283 61bf d290 71bf ba64 8c3f
000003a0: cf4b c4bd 0e29 9c3d ef59 babe 0a49 b7bd
000003b0: eb60 153d 70ce 9abd 00af 9abe 6f72 8d3e
000003c0: 49e4 463e d054 c2bd cfb7 83be 1aa2 643e
000003d0: ffeb 843d f4f9 dabe 0f34 54bd 28f0 993e
000003e0: 6f2e e53e 6888 aabe cc09 ddbe 8764 36bd
000003f0: 9270 c8be d283 54be 19b4 b13e b7b1 b7be

bias f4 [128]
-0.15599647 -0.09597129 -0.14681478 -0.07510642 -0.43922028 -0.28991112 -0.13082622 -0.07551936
-0.14247306 -0.18768582 0.11196337 -0.27977055 -0.059740704 -0.057720136 -0.173833 0.0073104175
-0.014990501 -0.042463824 0.07035676 -0.19913088 -0.049659092 -0.19020925 -0.3262668 -0.27659863
-0.16281895 -0.3921497 0.2761972 0.123200886 -0.1443717 0.22752249 0.033174854 -0.2184955
0.010334741 -0.22639276 -0.2231159 0.020824276 0.028616697 -0.028791904 0.13266695 0.061480444
-0.35056037 0.1646409 0.046949245 0.17385209 -0.038167644 0.11085673 -0.12542258 -0.19774602
-0.31829268 0.05635678 0.14453836 -0.1840995 -0.46770668 0.012948927 -0.06291583 -0.07670549
-0.1887024 -0.1092114 -0.19779295 -0.12771493 0.04574022 -0.20666224 -0.4971741 -0.05387878
-0.21980406 -0.008642854 -0.105162434 -0.3410259 -0.02882782 0.13563007 -0.3952839 -0.1893556
-0.3757225 0.021154663 -0.52165914 -0.029289687 -0.12320634 -0.06992038 -0.24090551 0.085617885
-0.23360978 -0.0652837 0.054664824 -0.033511996 0.23537557 -0.20862629 -0.2598922 -0.08995942
-0.05294114 0.16819482 -1.0868623 -0.06248425 0.035120543 -0.027946617 -0.28262296 0.18667465
-0.28462756 0.047256805 0.059527837 -0.18414387 0.017208023 -0.06854373 -0.13758487 -0.24485894
-0.22444646 -0.4097793 -0.22636335 0.05277101 0.07616477 -0.37919626 0.037763543 -0.084306605
0.116539784 -0.16096058 -0.43295467 0.081904605 0.023694867 -0.1178039 -0.32406396 -0.10392308
-0.43832538 0.063640535 0.06374112 0.08458223 -0.095915474 0.0032549326 -0.80226696 -0.17205301
00000000: 8abd 1fbe 988c c4bd 9d56 16be 65d1 99bd
00000010: 7be1 e0be 3b6f 94be 4ff7 05be e5a9 9abd
00000020: 75e4 11be b630 40be 0d4d e53d 163e 8fbe
00000030: abb2 74bd f36b 6cbd 4701 32be 3a8c ef3b
00000040: b89a 75bc 8cee 2dbd 3417 903d f7e8 4bbe
00000050: 5567 4bbd 37c6 42be 710c a7be 569e 8dbe
00000060: 03ba 26be d8c7 c8be b869 8d3e bf50 fc3d
00000070: 2dd6 13be a8fb 683e 5be2 073d 49bd 5fbe
00000080: 0c53 293c 81d3 67be 7f78 64be ac97 aa3c
00000090: 906d ea3c 00dd ebbc d8d9 073e ebd2 7b3d
000000a0: a67c b3be a097 283e da4d 403d 4806 323e
000000b0: ad55 1cbd da08 e33d c76e 00be ef7d 4abe
000000c0: 42f7 a2be 5ed6 663d dd01 143e 9484 3cbe
000000d0: 4077 efbe bc27 543c 04da 80bd c517 9dbd
000000e0: 343b 41be 3aaa dfbd 3c8a 4abe b4c7 02be
000000f0: 195a 3b3d 449f 53be 9b8d febe ffaf 5cbd
00000100: 5114 61be c29a 0dbc 675f d7bd f29a aebe
00000110: 5228 ecbc 9ce2 0a3e a762 cabe 6fe6 41be
00000120: b35e c0be 8b4c ad3c 748b 05bf edf0 efbc
00000130: 9b53 fcbd 6b32 8fbd efaf 76be 6e58 af3d
00000140: 6737 6fbe 76b3 85bd 39e8 5f3d e043 09bd
00000150: 4b06 713e 21a2 55be 9710 85be a53c b8bd
00000160: cfd8 58bd 433b 2c3e 4e1e 8bbf 7cef 7fbd
00000170: 8fda 0f3d 4ef0 e4bc f5b3 90be a427 3f3e
00000180: b4ba 91be 5a90 413d 76d3 733d 3690 3cbe
00000190: d7f7 8c3c a860 8cbd 0ce3 0cbe 4dbc 7abe
000001a0: 4bd5 65be 98ce d1be cbcb 67be 6a26 583d
000001b0: 46fc 9b3d 0326 c2be f2ad 1a3d f1a8 acbd
000001c0: 69ac ee3d dad2 24be 3cac ddbe 9abd a73d
000001d0: bd1b c23c 2c43 f1bd b6eb a5be a0d5 d4bd
000001e0: 2f6c e0be f855 823d b48a 823d 7339 ad3d
000001f0: 556f c4bd b550 553b 5e61 4dbf aa2e 30be

weight f4 [128, 128]
-0.2666072 0.08037411 -0.10569042 0.32501677 0.114896186 0.09588859 0.0007349126 -0.07054563
0.008333358 -0.058442455 0.018041613 -0.17800611 -0.008280695 0.068634465 0.04781117 -0.041234832
-0.046150234 0.031505805 -0.04592616 0.11870142 -0.40485868 -0.067068316 -0.040194184 -0.14309159
0.07915417 -0.043238007 0.19876893 0.08469976 0.011467242 -0.097563066 -0.048883665 -0.13341506
-0.0033049614 0.004620564 0.044606674 -0.43633145 0.095113255 -0.017331282 0.086673416 -0.12868224
-0.1740268 -0.23679389 -0.27943176 0.018875025 0.3267845 -0.026252115 0.18114184 0.0061418004
0.09691851 -0.0021945906 -0.027933251 -0.18674256 -0.017710099 0.08083091 -0.40869623 0.18659227
-0.048600964 -0.07845331 -0.29646254 -0.045544263 -0.13966888 -0.26120612 0.0782895 -0.009636271
-0.18497376 0.08300112 -0.06150217 -0.027444588 0.29336634 -0.071423806 0.012150145 -0.17658149
-0.04485509 -0.018596428 0.07619417 0.06959568 0.010612281 -0.07605902 0.0028835356 -0.07295529
-0.2632383 0.03046806 -0.13045983 0.14689022 0.19860506 -0.25018096 -0.13819376 0.20965414
-0.43625715 -0.2391678 0.050101925 -0.07957702 -0.005983488 -0.047173914 -0.17577936 -0.098079965
0.12077451 0.15647906 -0.13872811 -0.05870601 0.039655797 0.21106738 0.114003554 -0.2617401
0.114369944 0.11660134 -0.063737065 0.03698219 0.064000785 -0.22000116 0.06552878 0.30524078
-0.051432732 -0.066367574 -0.018607374 0.096836835 -0.038417865 -0.00024276506 -0.14287773 0.11352056
-0.06979701 -0.12523836 -0.005413046 -0.046605133 -0.106754124 -0.29453838 0.29201877 -0.24750715
-0.016741754 -0.2938737 0.023378454 -0.25023085 -0.16842146 -0.13796958 0.0919511 -0.184222
-0.41488916 0.16869591 -0.13414034 -0.049277034 -0.084544286 -0.13192292 0.11628215 0.13389191
-0.30790696 0.040252615 -0.057458322 0.22521484 -0.19346757 0.11791168 0.021792788 -0.052966267
-0.17166378 0.11951398 -0.4234931 -0.2538971 0.122414604 -0.28702506 -0.021294607 0.08844488
-0.1193078 -0.107283205 -0.021659689 -0.11362725 -0.15054993 -0.10441373 -0.012189027 0.12348132
0.104739815 -0.14327098 -0.0134994155 -0.04377221 -0.22198012 -0.17360249 -0.16941246 0.06706038
0.022587022 0.012924215 0.08644623 0.12187286 0.047318105 0.07947428 0.25093 0.15273932
-0.16639198 0.03358476 0.19687983 -0.16861501 0.07724556 0.14075048 -0.026658986 0.13944307
-0.16978948 -0.07348257 0.12935403 -0.12800142 -0.11069285 -0.23740014 0.026021676 -0.11676107
0.097313955 0.14455757 -0.121296644 0.05918781 -0.17487185 0.2097857 -0.023094015 -0.035058923
0.015480592 -0.21811752 -0.17502657 -0.07996531 0.09311884 -0.045621652 0.03165681 -0.17644618
-0.109486274 0.24788198 0.093517415 -0.105055906 0.09747836 -0.08413301 -0.051719815 0.19701122
0.013343724 -0.032134198 -0.022326946 -0.23879127 -0.1458596 -0.06375164 -0.06384463 0.035562254
0.110380776 0.05410968 -0.12969258 -0.113058165 -0.2388298 -0.21805033 0.020806357 0.03933214
0.1919286 -0.31035852 0.111156344 -0.16558065 0.09368608 0.18646069 -0.16398315 -0.027879074
-0.06656138 0.046134695 -0.35781905 -0.18247019 0.031637356 -0.03368263 -0.053076047 -0.009167871
00000000: bd80 88be 2e9b a43d 3874 d8bd 9968 a63e
00000010: b14e eb3d 3d61 c43d 26a7 403a 3a7a 90bd
00000020: a388 083c 5b61 6fbd 01cc 933c 3c47 36be
00000030: c1ab 07bc 3a90 8c3d a5d5 433d dbe5 28bd
00000040: 0708 3dbd 3b0c 013d 121d 3cbd bb19 f33d
00000050: a349 cfbe 1d5b 89bd a8a2 24bd 9a86 12be
00000060: 951b a23d 561a 31bd 158a 4b3e 1177 ad3d
00000070: 19e1 3b3c 25cf c7bd 3d3a 48bd f59d 08be
00000080: 0d98 58bb 1a68 973b 7db5 363d d666 dfbe
00000090: bdca c23d 55fa 8dbc d581 b13d 47c5 03be
000000a0: 1534 32be 197a 72be ae11 8fbe cc9f 9a3c
000000b0: 4c50 a73e ad0e d7bc 3f7d 393e 2841 c93b
000000c0: 367d c63d 1fd3 0fbb 46d4 e4bc 7139 3fbe
000000d0: c514 91bc ad8a a53d a240 d1be 0b12 3f3e
000000e0: ce11 47bd 21ac a0bd f0c9 97be 9f8c 3abd
000000f0: 5c05 0fbe cfbc 85be 3f56 a03d 73e1 1dbc
00000100: c369 3dbe 7efc a93d b3e9 7bbd 79d3 e0bc
00000110: 1d34 963e a546 92bd 6711 473c c7d1 34be
00000120: f9b9 37bd 8957 98bc b00b 9c3d 2e88 8e3d
00000130: 22df 2d3c d5c4 9bbd b3f9 3c3b 9569 95bd
00000140: 2cc7 86be 2798 f93c 4397 05be 646a 163e
00000150: 205f 4b3e b817 80be aa82 0dbe 93af 563e
00000160: 195d dfbe 67e8 74be ad37 4d3d 47f9 a2bd
00000170: 2311 c4bb 6f39 41bd 81ff 33be 26de c8bd
00000180: a058 f73d 0c3c 203e be0e 0ebe b775 70bd
00000190: 1e6e 223d 0c22 583e b27a e93d cc02 86be
000001a0: ca3a ea3d afcc ee3d 9488 82bd a37a 173d
000001b0: d812 833d fc47 61be f433 863d 8548 9c3e
000001c0: 21ab 52bd b9eb 87bd 7e6e 98bc 6452 c63d
000001d0: 0d5c 1dbd c08e 7eb9 8a4e 12be 787d e83d
000001e0: bcf1 8ebd 7c3e 00be ec5f b1bb 06e5 3ebd
000001f0: e8a1 dabd bccd 96be 7c83 953e 8472 7dbe
00000200: 0126 89bc 9d76 96be 2c84 bf3c 421e 80be
00000210: ad76 2cbe e647 0dbe dc50 bc3d b1a4 3cbe
00000220: 5a6c d4be 9fbe 2c3e 165c 09be b7d6 49bd
00000230: 8e25 adbd cd16 07be 5625 ee3d f61a 093e
00000240: fba5 9dbe eddf 243d 6b59 6bbd b89e 663e
00000250: 5d1c 46be ae7b f13d ca86 b23c 28f3 58bd
00000260: a1c8 2fbe bfc3 f43d 16d4 d8be cdfe 81be
00000270: 82b4 fa3d f3f4 92be 0772 aebc 9722 b53d
00000280: a657 f4bd 4cb7 dbbd a96f b1bc 67b5 e8bd
00000290: c329 1abe ded6 d5bd 7cb4 47bc c6e3 fc3d
000002a0: d481 d63d a1b5 12be a72c 5dbc 7d4a 33bd
000002b0: c24e 63be dac4 31be 767a 2dbe f456 893d
000002c0: 6b08 b93c 16c0 533c b90a b13d 7a98 f93d
000002d0: a1d0 413d 69c3 a23d e679 803e b267 1c3e
000002e0: a962 2abe 2c90 093d de9a 493e 6aa9 2cbe
000002f0: ec32 9e3d e520 103e f263 dabc 2aca 0e3e
00000300: 4bdd 2dbe 087e 96bd 6275 043e ce12 03be
00000310: efb2 e2bd 0619 73be 692b d53c 6e20 efbd
00000320: 8a4c c73d e606 143e 606a f8bd eb6e 723d
00000330: 9b11 33be 10d2 563e a92f bdbc f299 0fbd
00000340: 4fa2 7d3c 335a 5fbe 2a3a 33be dac4 a3bd
00000350: 17b5 be3d c5dd 3abd 92aa 013d 4fae 34be
00000360: 573a e0bd c6d4 7d3e 0f86 bf3d 8d27 d7bd
00000370: bca2 c73d ed4d acbd 28d8 53bd 4fbd 493e
00000380: a39f 5a3c 269f 03bd 00e7 b6bc b385 74be
00000390: 385c 15be 3890 82bd f9c0 82bd baa9 113d
000003a0: 510f e23d 1da2 5d3d 22ce 04be 0a8b e7bd
000003b0: cd8f 74be 9648 5fbe 1872 aa3c bd1a 213d
000003c0: ee88 443e 50e7 9ebe f0a5 e33d f98d 29be
000003d0: 7dde bf3d 8def 3e3e 33eb 27be a862 e4bc
000003e0: 5551 88bd bcf7 3c3d 0f34 b7be 77d9 3abe
000003f0: 2c96 013d ccf6 09bd 4566 59bd d734 16bc

bias f4 [128]
-0.08900492 0.014700925 0.07526167 -0.20463988 -0.19198215 -0.6219706 -0.21183906 -0.14598396
-0.70228666 -0.07021586 -0.24226075 0.020876065 -0.34538722 -0.012941496 -0.38880453 -0.2290227
-0.05744124 -0.2532472 -0.8413189 -0.280619 -0.28240952 -0.008845589 -1.3830668 -0.29801947
-0.18670057 -0.28525305 -0.46870095 -0.010057451 -0.1335922 -0.14446048 0.055209212 -0.2314694
-0.1262661 -0.31933144 -0.06342932 -0.13007008 -0.09968713 -0.42611894 -0.037348673 -0.30154902
0.03571261 -0.0069574444 -0.34992066 -0.26551908 -0.36852393 -0.021974495 0.04599624 -0.36596215
-0.022480384 -0.12899914 -0.07915303 0.095525995 -0.089335926 -0.17136618 0.042035665 -0.2979071
-0.3795922 -0.0031592979 -0.08471787 0.117761664 -0.16579856 -0.25404415 -0.9804393 0.041589085
0.10684917 0.064202264 -0.02133544 -0.18737969 -0.37650356 -0.6883061 -0.3868153 -0.24022016
-0.362675 -0.13659789 -0.38900942 -0.16839556 -0.5879839 -0.2600594 -0.40297282 0.078611135
0.12136212 -0.37719712 0.03197016 0.020824598 0.14372213 0.0071236663 -0.03526537 -0.3187301
-0.390271 -0.28616008 0.14574343 -0.3980882 0.008109558 -0.27569985 0.16441567 -0.0013067281
-0.36037472 -0.099678904 -0.15703093 -0.14081956 -0.2168023 -0.27076873 -0.34150845 -0.26574045
-0.101866506 -0.09450237 -0.20358756 -0.2422209 -0.19768557 -0.005797658 -0.43066695 -0.29202366
-0.16471025 -0.32259372 -0.16558981 -0.18437022 -0.11768466 -0.07881906 -0.20080256 -0.36425868
-0.4657436 -0.17905565 -0.41956985 -0.47890842 -0.4079599 -0.02203694 -0.09495875 -0.3751586
00000000: 3648 b6bd 26dc 703c ca22 9a3d 1e8d 51be
00000010: f896 44be 7739 1fbf 57ec 58be d27c 15be
00000020: 0fc9 33bf 55cd 8fbd 3413 78be 4804 ab3c
00000030: 98d6 b0be 9208 54bc 6311 c7be ed84 6abe
00000040: 8147 6bbd 9ea9 81be ad60 57bf 4bad 8fbe
00000050: fb97 90be 17ed 10bc 5508 b1bf 0296 98be
00000060: 6f2e 3fbe b00c 92be 92f9 efbe 02c8 24bc
00000070: 65cc 08be 73ed 13be 0e23 623d 5006 6dbe
00000080: e74b 01be 697f a3be 3be7 81bd 1731 05be
00000090: c428 ccbd 432c dabe ecfa 18bd a264 9abe
000000a0: 6347 123d 46fb e3bb cd28 b3be 1ef2 87be
000000b0: 2baf bcbe db03 b4bc 8e66 3c3d 645f bbbe
000000c0: c828 b8bc 5a18 04be fc1a a2bd 22a3 c33d
000000d0: c1f5 b6bd 9e7a 2fbe 972d 2c3d 4887 98be
000000e0: e959 c2be 390c 4fbb 9080 adbd 072d f13d
000000f0: 19c7 29be 1312 82be 12fe 7abf 5159 2a3d
00000100: bdd3 da3d 7a7c 833d a9c7 aebc 76e0 3fbe
00000110: 13c5 c0be d434 30bf a80c c6be 46fc 75be
00000120: 8ab0 b9be 51e0 0bbe 3e2c c7be e36f 2cbe
00000130: 1d86 16bf 8126 85be 7452 cebe e0fe a03d
00000140: b48c f83d fb1f c1be 24f3 023d 5998 aa3c
00000150: e52b 133e a56d e93b 6c72 10bd 9730 a3be
00000160: 9ad1 c7be 9383 92be c43d 153e 37d2 cbbe
00000170: f4dd 043c 8828 8dbe 955c 283e 8546 abba
00000180: 0983 b8be 7424 ccbd b7cc 20be 0133 10be
00000190: 6c01 5ebe 33a2 8abe 32da aebe 220f 88be
000001a0: 639f d0bd 758a c1bd 4279 50be c108 78be
000001b0: 166e 4abe 48fa bdbb 6180 dcbe 2084 95be
000001c0: cea9 28be 012b a5be 6090 29be 8ccb 3cbe
000001d0: a804 f1bd e36b a1bd 309f 4dbe 1d80 babe
000001e0: f275 eebe 5d5a 37be dcd1 d6be 7c33 f5be
000001f0: 1fe0 d0be d086 b4bc bc79 c2bd ca14 c0be

weight f4 [128, 128]
-0.0059275073 -0.018054258 0.12936363 -0.022665678 0.33126935 0.12393315 0.006085029 -0.57693094
0.079066545 -0.1320654 -0.03833761 -0.29462793 0.35194793 0.050837487 -0.2797717 0.062693976
0.005633172 -0.10746682 0.28323242 0.019464051 -0.017976874 0.028037596 -0.08621868 -0.06680669
-0.0654082 0.1994038 0.038429536 0.072055824 -0.29346263 0.20275438 0.061821967 0.3417249
-0.20547707 -0.2947069 -0.20336688 -0.033543285 -0.10856914 -0.0033279557 -0.16228114 0.25111535
0.025309302 -0.08195113 0.22739604 -0.036894206 0.1141526 -0.118951604 -0.2928638 -0.07794347
0.042361118 -0.07674914 0.14027247 0.11223229 -0.100444384 0.054331057 0.12114441 0.09776128
-0.07790238 -0.24039616 -0.11215739 -0.039687917 -0.059425883 -0.10043415 0.31431717 -0.1884674
0.1865016 0.16541716 0.15238608 -0.17620334 -0.12633242 0.11455668 0.14882918 0.004838041
0.046443745 0.060409054 0.17429808 0.17384203 -0.091279626 0.03289622 0.11663586 -0.12033376
0.007499795 0.07382244 0.08410162 0.110277176 -0.2798274 -0.050487395 -0.0022937986 -0.096391164
-0.014728435 -0.1492237 0.022359075 0.018806862 0.117413774 -0.12769395 -0.073780954 0.11605248
0.003236248 -0.5562163 0.10576418 0.014643475 0.080424 -0.024636127 -0.016808804 0.015317995
-0.12650315 -0.26699483 -0.08557053 -0.049046412 -0.17009655 0.07848223 -0.044241242 -0.010603445
0.02725218 0.16805914 0.038664777 0.015396279 -0.18501131 -0.24417652 0.021097956 0.09261699
-0.19298932 0.25487557 0.007282351 0.10327815 -0.15708326 0.09040342 0.08081589 0.1876375
-0.1357556 0.04787623 -0.023345197 0.06814037 -0.12131276 -0.19986816 0.17740776 -0.2654042
0.2151877 -0.23227656 -0.15703066 0.033071 -0.09071464 0.12000149 -0.20461625 -0.013395186
-0.0105310595 -0.22538398 0.18108152 -0.14795505 0.01725443 0.02013125 0.03892041 0.015472301
-0.14943244 -0.22367066 0.07188687 -0.14322105 0.10675544 -0.017506627 -0.119257875 -0.03407668
-0.17496163 -0.047158528 -0.080831915 0.21908428 -0.22437045 0.032434065 0.04716935 0.08991038
-0.10380791 0.05179007 -0.090737216 -0.10417647 0.030275721 0.037661836 -0.0070576076 0.17080007
0.033909872 0.01802787 -0.064289205 0.14809793 0.049959064 0.0597536 0.016980581 -0.17801212
0.10214806 0.1549284 0.10368 -0.241013 -0.045754936 0.16305114 0.18009984 0.2670698
0.16250451 0.10398372 0.1440068 -0.068576306 -0.0071613085 0.14299133 0.05026329 0.3081669
-0.46566615 -0.06800531 -0.087746635 -0.11560292 0.32743487 0.048890557 -0.16583958 -0.112279736
-0.1820883 0.29941675 0.026456455 -0.12869771 -0.12694691 -0.10003631 -0.16166776 0.16084911
-0.2057908 -0.32272717 -0.10940664 0.13693486 -0.07306064 -0.03969891 0.21075211 0.24523866
-0.14759783 0.106891096 -0.13844214 0.008590374 -0.05197051 0.31149375 -0.13226905 -0.122409575
-0.06127349 -0.2364643 -0.2372886 -0.00012095183 0.012298464 0.13984253 0.06550374 -0.27880028
-0.14967968 -0.16161141 0.106259875 -0.050758548 0.12647773 0.01150645 -0.13155866 -0.088927746
0.0005453693 0.042730514 0.30617484 0.12124211 0.16173297 -0.028344141 -0.11502016 0.0383618
00000000: 893b c2bb 86e6 93bc e677 043e 5fad b9bc
00000010: 239c a93e aad0 fd3d ec64 c73b bfb1 13bf
00000020: a4ed a13d 273c 07be e607 1dbd 79d9 96be
00000030: 8532 b43e f83a 503d 3c3e 8fbe b365 803d
00000040: 7996 b83b 9017 dcbd d703 913e 1373 9f3c
00000050: 3d44 93bc 1aaf e53c 6b93 b0bd f2d1 88bd
00000060: bcf4 85bd 8230 4c3e 4a68 1d3d 0192 933d
00000070: bc40 96be d89e 4f3e 0839 7d3d 91f6 ae3e
00000080: 9568 52be d3e3 96be 683f 50be af64 09bd
00000090: 7f59 debd d519 5abb 072d 26be 3192 803e
000000a0: 7455 cf3c fed5 a7bd 82da 683e 611e 17bd
000000b0: d7c8 e93d e69c f3bd 3ef2 95be d3a0 9fbd
000000c0: da82 2d3d a72e 9dbd 96a3 0f3e 0bda e53d
000000d0: c9b5 cdbd 3e8a 5e3d 8f1a f83d 1137 c83d
000000e0: 488b 9fbd 692a 76be c6b2 e5bd cc8f 22bd
000000f0: 8e68 73bd 6bb0 cdbd 2eee a03e 99fd 40be
00000100: 47fa 3e3e 1e63 293e 190b 1c3e a66e 34be
00000110: 495d 01be b19c ea3d ad66 183e 6e88 9e3b
00000120: cc3b 3e3d 7c6f 773d 327b 323e a503 323e
00000130: d0f0 babd 30be 063d c8de ee3d 8c71 f6bd
00000140: d7c0 f53b 3830 973d 783d ac3d 00d9 e13d
00000150: 8945 8fbe dfcb 4ebd 8e53 16bb bb68 c5bd
00000160: 894f 71bc 19ce 18be 612a b73c d910 9a3c
00000170: a276 f03d 34c2 02be 781a 97bd ecac ed3d
00000180: 3b17 543b 3164 0ebf e49a d83d 30eb 6f3c
00000190: 57b5 a43d b4d1 c9bc 9eb2 89bc 54f8 7a3c
000001a0: 0b8a 01be 8cb3 88be 9a3f afbd e4e4 48bd
000001b0: ca2d 2ebe 4bbb a03d 4e36 35bd 12ba 2dbc
000001c0: f73f df3c b217 2c3e f55e 1e3d ad40 7c3c
000001d0: 9b73 3dbe 6909 7abe 9fd5 ac3c faad bd3d
000001e0: fe9e 45be 0d7f 823e caa0 ee3b 7f83 d33d
000001f0: 6fda 20be 6e25 b93d cd82 a53d 0b24 403e
00000200: 8403 0bbe de19 443d 6d3e bfbc 2e8d 8b3d
00000210: d372 f8bd 3daa 4cbe 61aa 353e 0fe3 87be
00000220: 2a5a 5c3e e8d9 6dbe a5cc 20be 7575 073d
00000230: 99c8 b9bd 57c3 f53d ec86 51be 7b77 5bbc
00000240: 778a 2cbc 0fcb 66be 6f6d 393e 8781 17be
00000250: 2a59 8d3c 4bea a43c 026b 1f3d 897f 7d3c
00000260: d104 19be ec09 65be 6c39 933d 8aa8 12be
00000270: 99a2 da3d 0f6a 8fbc 793d f4bd fd93 0bbd
00000280: 2429 33be 4d29 41bd 348b a5bd a157 603e
00000290: 5ec1 65be 95d9 043d a634 413d ef22 b83d
000002a0: 3e99 d4bd d321 543d 6fd4 b9bd 795a d5bd
000002b0: ca04 f83c 4c43 1a3d 8143 e7bb 37e6 2e3e
000002c0: 14e5 0a3d 2faf 933c 0faa 83bd fca6 173e
000002d0: e0a1 4c3d 31c0 743d dc1a 8b3c cf48 36be
000002e0: 0133 d13d 8da5 1e3e 2e56 d43d 1dcc 76be
000002f0: 8769 3bbd e1f6 263e 186c 383e 5fbd 883e
00000300: 9567 263e 6bf5 d43d 8576 133e bc71 8cbd
00000310: 69a9 eabb 526c 123e e1e0 4d3d 0dc8 9d3e
00000320: cb6b eebe 5e46 8bbd 82b4 b3bd 39c1 ecbd
00000330: 8ba5 a73e 7741 483d dad1 29be ebf2 e5bd
00000340: 5b75 3abe 274d 993e 35bb d83c 55c9 03be
00000350: 5ffe 01be d6df ccbd 3c8c 25be a1b5 243e
00000360: d3ba 52be 7f3c a5be 9710 e0bd a738 0c3e
00000370: d1a0 95bd 539b 22bd 67cf 573e d81f 7b3e
00000380: e323 17be b8e9 da3d c7c3 0dbe a4be 0c3c
00000390: 08df 54bd 1c7c 9f3e 8a71 07be dfb1 fabd
000003a0: e9f9 7abd b323 72be c8fb 72be 85a7 fdb8
000003b0: 7f7f 493c e132 0f3e d326 863d e9be 8ebe
000003c0: a145 19be 767d 25be c79e d93d 32e8 4fbd
000003d0: 6183 013e 8d85 3c3c 50b7 06be c01f b6bd
000003e0: 1df7 0e3a 3106 2f3d f3c2 9c3e c94d f83d
000003f0: 549d 253e f931 e8bc b18f ebbd 4321 1d3d

bias f4 [128]
-0.19148119 -0.27184388 -0.30850655 -0.13090739 0.033265904 -0.077508256 -0.18839884 0.034742367
-0.051026873 -0.4337284 -0.11882003 -0.14661093 -0.14683627 -0.14681083 -0.030703608 -0.2775252
-0.11214086 -0.41628736 -0.15862742 -0.15233254 -0.09452877 -0.024438355 -0.008671692 -0.087296054
-0.17093989 -0.26907957 -0.4070103 -0.24947129 -0.10889651 -0.27166688 -0.1315056 -0.28752056
-0.2945499 -0.2784506 -0.26141807 -0.30525926 -0.2702448 -0.20661828 -0.23876923 -0.28067127
-0.03359562 -0.17705365 -0.27538428 -0.19412872 -0.03639889 -0.12632702 -0.22232741 0.0051342715
-0.13867912 -0.26849803 -0.33356404 -0.03428339 -0.20278093 -0.021834321 -0.22094795 -0.19502081
-0.24855961 -0.2876618 0.020260116 -0.11977855 0.0026896896 -0.046737123 -0.34889722 -0.28287378
-0.06836103 -0.08949038 -0.23468727 -0.3053653 -0.07405792 0.021868749 -0.25340587 -0.19953276
-0.29449037 -0.22458018 -0.21483107 -0.3318202 -0.028830713 -0.3084927 -0.25951752 -0.041130662
-0.12868801 -0.16191863 -0.17269598 0.0065542483 -0.23153462 -0.18695463 -0.21161188 -0.025174458
-0.15069093 -0.20712146 -0.2920845 0.021077229 -0.22013451 -0.20262584 -0.18833819 -0.36469802
-0.107599296 -0.16656955 -0.16638424 -0.28636354 -0.077934854 -0.116086386 -0.20504183 -0.29046184
-0.1379764 -0.12008217 -0.08406887 -0.10250798 -0.17422785 -0.2460632 0.007430148 -0.17362109
-0.18293566 -0.11210123 -1.8218585 -0.26073825 -0.120368585 -0.19367181 -0.20305355 -0.22444877
-0.19156972 -0.14380172 -0.13262619 -0.22254968 -0.19887137 0.01840927 -0.16588603 -0.091608636
00000000: a513 44be 1f2f 8bbe 92f4 9dbe 960c 06be
00000010: d441 083d a6bc 9ebd a0eb 40be 034e 0e3d
00000020: 8e01 51bd a611 debe ea57 f3bd 2d21 16be
00000030: 3f5c 16be 9455 16be 2286 fbbc c817 8ebe
00000040: 1baa e5bd 9e23 d5be 3a6f 22be 10fd 1bbe
00000050: 4d98 c1bd f232 c8bc b613 0ebc 46c8 b2bd
00000060: de0a 2fbe ccc4 89be a763 d0be 6775 7fbe
00000070: 2205 dfbd ec17 8bbe 67a9 06be e535 93be
00000080: 3fcf 96be 1491 8ebe 97d8 85be f14a 9cbe
00000090: 875d 8abe be93 53be ec7f 74be 25b4 8fbe
000000a0: 909b 09bd 8d4d 35be 2bff 8cbe aec9 46be
000000b0: 0117 15bd df5b 01be cca9 63be 643d a83b
000000c0: e601 0ebe 9378 89be e8c8 aabe bd6c 0cbd
000000d0: cea5 4fbe e4dd b2bc 2e40 62be 89b3 47be
000000e0: 6986 7ebe 6848 93be 8bf8 a53c 754e f5bd
000000f0: 8145 303b 6d6f 3fbd a8a2 b2be d5d4 90be
00000100: de00 8cbd bb46 b7bd dc51 70be d758 9cbe
00000110: aeab 97bd 1726 b33c 6abe 81be 5152 4cbe
00000120: 71c7 96be 59f8 65be adfc 5bbe 56e4 a9be
00000130: 632e ecbc c1f2 9dbe 7bdf 84be a078 28bd
00000140: cac6 03be ffcd 25be 37d7 30be 05c5 d63b
00000150: 6917 6dbe 0971 3fbe c9b0 58be aa3a cebc
00000160: b94e 1abe a617 54be 198c 95be 27aa ac3c
00000170: f16a 61be 267d 4fbe badb 40be b3b9 babe
00000180: 055d dcbd 3591 2abe a160 2abe 3e9e 92be
00000190: 4f9c 9fbd b3be edbd 7cf6 51be 6ab7 94be
000001a0: af49 0dbe a4ed f5bd 4d2c acbd b4ef d1bd
000001b0: c968 32be fef7 7bbe 9978 f33b bac9 31be
000001c0: 7c53 3bbe 5495 e5bd a932 e9bf 7c7f 85be
000001d0: ce83 f6bd e751 46be 45ed 4fbe e6d5 65be
000001e0: da2a 44be c240 13be 29cf 07be 10e4 63be
000001f0: f0a4 4bbe 0acf 963c 07de 29be 4f9d bbbd

weight f4 [12, 128]
-0.013261605 0.0059025753 0.0062145493 -0.0005010614 -0.002025052 -0.014242689 0.0035192487 0.00055666815
0.0041095405 0.0025748624 0.0023321866 -0.01720755 -0.004094542 -0.001488316 -0.004261152 -0.011056828
0.005049237 0.021299861 -0.01905844 0.036011484 -0.0197488 0.0060149287 -0.0034204826 0.0005197102
0.011777981 -0.02815101 0.00567768 0.007239269 0.015895732 0.012951648 -0.04465806 0.006587625
-0.019167602 -0.007493955 3.7989754e-05 0.024817048 -0.004040939 0.009771714 0.009680717 0.01935028
-0.0049400735 -0.011894461 0.023243094 -0.0049935277 0.0027721033 0.0014842717 -0.0010236376 0.0036591967
0.0041425293 0.01931773 0.012683736 -0.0059988233 -0.010965394 -0.0036889827 0.009827708 0.0033858356
0.010025597 -0.0037754201 0.003129931 0.0020363654 0.0048311087 -0.011200323 -0.05245192 0.021608634
0.024301326 -0.021496713 0.025165765 0.066488594 -0.00401814 0.0017919494 -0.014267341 -0.014560621
0.0040869587 0.020570476 -0.046275463 -0.0052016685 0.0021411963 -0.011269999 0.011110765 -0.0011640475
-0.0007353421 0.0454611 -0.0353824 -0.013570231 0.010179567 0.0013488977 0.021580674 0.0021148415
-0.018085329 0.039854307 0.030142836 -0.0028534506 0.024025973 -0.028076963 -0.013763502 0.006600566
0.013658579 0.006817969 0.015319536 -0.003134655 0.0046725674 0.0022834504 0.017607568 -0.019741671
-0.023557954 0.008424146 -0.006762352 0.00023966069 0.038421728 0.020782094 0.0056748195 0.009759484
-0.002952934 -0.052334532 -0.027973065 -0.008222804 0.0016899212 -0.039573006 -0.0002186977 -0.002497753
0.009585376 -0.015128465 0.0074611953 -0.0020928425 -0.024418054 -0.0010528674 0.026904851 0.0027715066
0.0047526495 -0.012544815 -0.0040477123 -0.003989806 0.0011221525 0.053287294 -0.009784598 0.000743538
-0.0036680964 -0.0065829237 -0.013397886 -0.004715866 -0.0013449066 0.012774445 0.004899724 0.00826103
0.016811505 -0.005283949 -0.02482741 -0.01616339 0.021385647 0.0045954785 0.0053834934 -0.00059997686
-0.02645538 0.0023745915 -0.021011412 -0.023398494 -0.035054427 0.014716951 0.023371419 -0.025193535
0.0052929 -0.019149352 -0.00031023956 -0.006726662 0.019332767 0.00097198895 -0.021152329 0.007965061
0.0021704796 0.0015389718 -0.0068876636 0.012875799 -0.0037276687 -0.0014907733 -0.025033671 -0.00048084688
-0.008554997 -0.009685679 -0.0053890296 0.003690223 -0.0026155543 -0.0019151102 -0.021753216 0.010757627
-0.020063078 -0.06629829 -0.0035265465 -0.003237968 0.0036268714 0.013087439 0.011476701 -0.009400449
0.006437694 0.020461597 0.0004497184 0.0030361833 -0.0010603919 0.0006383017 -0.012952333 0.013871979
-0.0051229186 -0.03768795 0.0024572632 0.019423008 -0.0040393323 0.052720655 -0.030609086 -0.0031468733
0.0021466764 0.014598203 -0.015926776 0.0110317245 -0.021320155 -0.00082950114 -0.009580196 -0.0031553607
-0.009100012 0.0026574573 -0.0106055 -0.0009017103 0.019158553 0.0022038878 0.014238855 -0.0026037649
-0.0015236591 -0.003180899 0.035580087 0.027731145 -0.0006588436 -0.006084913 0.02462201 0.004124708
0.04500908 0.017319946 -0.024827436 0.0005307603 -0.020700324 -0.009676222 -0.005059831 -0.002463446
-0.039944462 0.014764732 0.027836097 0.0104185 0.0028068025 -0.009234194 -0.010098217 0.045514982
0.038711783 -0.045488127 -0.003812841 0.028323958 -0.017773367 0.0046226904 -0.011623652 0.0015796506
00000000: 3447 59bc 646a c13b 6ba3 cb3b a959 03ba
00000010: bcb6 04bb 2b5a 69bc 32a3 663b 5eed 113a
00000020: 53a9 863b 06bf 283b 99d7 183b d9f6 8cbc
00000030: 822b 86bb 9913 c3ba 22a1 8bbb b327 35bc
00000040: 1274 a53b 0c7d ae3c 7220 9cbc c780 133d
00000050: 3cc8 a1bc e118 c53b 2d2a 60bb 293d 083a
00000060: 6ff8 403c f29c e6bc d50b ba3b 6437 ed3b
00000070: c437 823c 2633 543c 5feb 36bd 01dd d73b
00000080: 6005 9dbc da8f f5bb 3057 1f38 1f4d cb3c
00000090: da69 84bb 8a19 203c df9b 1e3c 7a84 9e3c
000000a0: 57e0 a1bb fce0 42bc 4d68 be3c bfa0 a3bb
000000b0: 2dac 353b e58b c23a 942b 86ba 22cf 6f3b
000000c0: 0ebe 873b 3740 9e3c 72cf 4f3c c791 c4bb
000000d0: 32a8 33bc dcc2 71bb 6504 213c e5e4 5d3b
000000e0: 6742 243c 0a6d 77bb 871f 4d3b 8b74 053b
000000f0: 474e 9e3b 8f81 37bc d3d7 56bd 9704 b13c
00000100: 9313 c73c e019 b0bc 6f28 ce3c 2c2b 883d
00000110: 9aaa 83bb d8df ea3a 91c1 69bc ac8f 6ebc
00000120: e5eb 853b 6a83 a83c 578b 3dbd c272 aabb
00000130: 5053 0c3b cda5 38bc ed09 363c f492 98ba
00000140: f9c3 40ba 6b35 3a3d 23ed 10bd ad55 5ebc
00000150: 33c8 263c 7fcd b03a f4c9 b03c 2799 0a3b
00000160: af27 94bc 453e 233d 1cee f63c f500 3bbb
00000170: 1ed2 c43c a901 e6bc 5080 61bc 9049 d83b
00000180: 3cc8 5f3c 4569 df3b cbfe 7a3c c96e 4dbb
00000190: 561c 993b f1a5 153b bf3d 903c 49b9 a1bc
000001a0: 9cfc c0bc 6e05 0a3c b896 ddbb 6d4d 7b39
000001b0: 1a60 1d3d 363f aa3c d6f3 b93b 3ee6 1f3c
000001c0: 0386 41bb bc5c 56bd c527 e5bc f1b8 06bc
000001d0: 5980 dd3a 4e17 22bd 3852 65b9 57b1 23bb
000001e0: fb0b 1d3c 62dd 77bc 0b7d f43b 1228 09bb
000001f0: 5f08 c8bc 5e00 8aba 9067 dc3c 2aa2 353b
00000200: 1dbc 9b3b c588 4dbc aca2 84bb ebbc 82bb
00000210: 3115 933a c743 5a3d 944f 20bc fee9 423a
00000220: 7264 70bb 91b5 d7bb cf82 5bbc 8d87 9abb
00000230: 9447 b0ba e84b 513c dd8d a03b 4559 073c
00000240: 48b8 893c fa24 adbb da62 cbbc 1669 84bc
00000250: f430 af3c ab95 963b 0468 b03b c447 1dba
00000260: f4b8 d8bc 099f 1b3b 2020 acbc 33ae bfbc
00000270: 3b95 0fbd 5e1f 713c 6b75 bf3c ac62 cebc
00000280: 1070 ad3b 1adf 9cbc a6a7 a2b9 556b dcbb
00000290: c05f 9e3c 13cd 7e3a a647 adbc e37f 023c
000002a0: 9b3e 0e3b 53b7 c93a e9b1 e1bb 04f5 523c
000002b0: e74b 74bb 0d66 c3ba 6a13 cdbc 2d1a fcb9
000002c0: 422a 0cbc afb0 1ebc 7596 b0bb abd7 713b
000002d0: b869 2bbb 6f04 fbba cd33 b2bc c240 303c
000002e0: 535b a4bc 66c7 87bd a21d 67bb 1734 54bb
000002f0: ceb0 6d3b b36c 563c c608 3c3c 5704 1abc
00000300: 4bf3 d23b 149f a73c 2fc8 eb39 b4fa 463b
00000310: d9fc 8aba b453 273a 0636 54bc 4c47 633c
00000320: 28de a7bb ae5e 1abd 090a 213b 001d 9f3c
00000330: 605c 84bb 9df1 573d e8bf fabc c63b 4ebb
00000340: 41af 0c3b 4d2d 6f3c df78 82bc 68be 343c
00000350: 9ba7 aebc e172 59ba 41f6 1cbc 2bca 4ebb
00000360: 3718 15bc bc28 2e3b b1c2 2dbc c160 6cba
00000370: 66f2 9c3c 1a6f 103b 164a 693c eda3 2abb
00000380: 84b5 c7ba a176 50bb 6dbc 113d 6d2c e33c
00000390: 3fb6 2cba f363 c7bb 19b4 c93c 8f28 873b
000003a0: 715b 383d 8fe2 8d3c e862 cbbc b922 0b3a
000003b0: ba93 a9bc 0489 1ebc f0cc a5bb c471 21bb
000003c0: ce9c 23bd c6e7 713c 8708 e43c 5bb2 2a3c
000003d0: 55f2 373b 044b 17bc fe72 25bc eb6d 3a3d
000003e0: 3f90 1e3d c251 3abd dbe0 79bb a507 e83c
000003f0: 7499 91bc f079 973b 2171 3ebc 470c cf3a

bias f4 [12]
-0.04909452 0.048873134 -0.16052724 0.15969089 0.01154019 0.0123038655 0.11445872 0.1144769
0.13827229 0.1362191 0.21447834 0.216508
00000000: 5617 49bd 322f 483d 4161 24be 0286 233e
00000010: 1113 3d3c 2796 493c 5569 ea3d dd72 ea3d
00000020: 4097 0d3e 057d 0b3e 36a0 5b3e 46b4 5d3e
